<?xml version="1.0"?>
<net name="3d_unet_decathlon" version="11">
	<layers>
		<layer id="0" name="mrimages" type="Parameter" version="opset1">
			<data shape="1,128,128,128,1" element_type="f32" />
			<rt_info>
				<attribute name="old_api_map_element_type" version="0" value="f16" />
				<attribute name="old_api_map_order" version="0" value="0, 2, 3, 4, 1" />
			</rt_info>
			<output>
				<port id="0" precision="FP32" names="Func/StatefulPartitionedCall/input/_0:0,mrimages:0">
					<dim>1</dim>
					<dim>128</dim>
					<dim>128</dim>
					<dim>128</dim>
					<dim>1</dim>
				</port>
			</output>
		</layer>
		<layer id="1" name="mrimages/Transpose([0 4 1 2 3])/value926813515" type="Const" version="opset1">
			<data element_type="i64" shape="5" offset="0" size="40" />
			<output>
				<port id="0" precision="I64">
					<dim>5</dim>
				</port>
			</output>
		</layer>
		<layer id="2" name="mrimages/Transpose([0 4 1 2 3])" type="Transpose" version="opset1">
			<input>
				<port id="0" precision="FP32">
					<dim>1</dim>
					<dim>128</dim>
					<dim>128</dim>
					<dim>128</dim>
					<dim>1</dim>
				</port>
				<port id="1" precision="I64">
					<dim>5</dim>
				</port>
			</input>
			<output>
				<port id="2" precision="FP32">
					<dim>1</dim>
					<dim>1</dim>
					<dim>128</dim>
					<dim>128</dim>
					<dim>128</dim>
				</port>
			</output>
		</layer>
		<layer id="3" name="StatefulPartitionedCall/3d_unet_decathlon/encodeA_bn0/FusedBatchNormV3/mean/Fused_Mul__copy_compressed" type="Const" version="opset1">
			<data element_type="f16" shape="8, 1, 3, 3, 3" offset="40" size="432" />
			<output>
				<port id="0" precision="FP16">
					<dim>8</dim>
					<dim>1</dim>
					<dim>3</dim>
					<dim>3</dim>
					<dim>3</dim>
				</port>
			</output>
		</layer>
		<layer id="4" name="StatefulPartitionedCall/3d_unet_decathlon/encodeA_bn0/FusedBatchNormV3/mean/Fused_Mul__copy" type="Convert" version="opset1">
			<data destination_type="f32" />
			<rt_info>
				<attribute name="decompression" version="0" />
			</rt_info>
			<input>
				<port id="0" precision="FP16">
					<dim>8</dim>
					<dim>1</dim>
					<dim>3</dim>
					<dim>3</dim>
					<dim>3</dim>
				</port>
			</input>
			<output>
				<port id="1" precision="FP32" names="StatefulPartitionedCall/3d_unet_decathlon/encodeA_conv0/Conv3D/ReadVariableOp:0">
					<dim>8</dim>
					<dim>1</dim>
					<dim>3</dim>
					<dim>3</dim>
					<dim>3</dim>
				</port>
			</output>
		</layer>
		<layer id="5" name="StatefulPartitionedCall/3d_unet_decathlon/encodeA_conv0/Conv3D" type="Convolution" version="opset1">
			<data strides="1, 1, 1" dilations="1, 1, 1" pads_begin="0, 0, 0" pads_end="0, 0, 0" auto_pad="same_upper" />
			<input>
				<port id="0" precision="FP32">
					<dim>1</dim>
					<dim>1</dim>
					<dim>128</dim>
					<dim>128</dim>
					<dim>128</dim>
				</port>
				<port id="1" precision="FP32">
					<dim>8</dim>
					<dim>1</dim>
					<dim>3</dim>
					<dim>3</dim>
					<dim>3</dim>
				</port>
			</input>
			<output>
				<port id="2" precision="FP32">
					<dim>1</dim>
					<dim>8</dim>
					<dim>128</dim>
					<dim>128</dim>
					<dim>128</dim>
				</port>
			</output>
		</layer>
		<layer id="6" name="data_add_7010_compressed" type="Const" version="opset1">
			<data element_type="f16" shape="1, 8, 1, 1, 1" offset="472" size="16" />
			<output>
				<port id="0" precision="FP16">
					<dim>1</dim>
					<dim>8</dim>
					<dim>1</dim>
					<dim>1</dim>
					<dim>1</dim>
				</port>
			</output>
		</layer>
		<layer id="7" name="data_add_7010" type="Convert" version="opset1">
			<data destination_type="f32" />
			<rt_info>
				<attribute name="decompression" version="0" />
			</rt_info>
			<input>
				<port id="0" precision="FP16">
					<dim>1</dim>
					<dim>8</dim>
					<dim>1</dim>
					<dim>1</dim>
					<dim>1</dim>
				</port>
			</input>
			<output>
				<port id="1" precision="FP32">
					<dim>1</dim>
					<dim>8</dim>
					<dim>1</dim>
					<dim>1</dim>
					<dim>1</dim>
				</port>
			</output>
		</layer>
		<layer id="8" name="StatefulPartitionedCall/3d_unet_decathlon/encodeA_conv0/BiasAdd/Add/Fused_Add_" type="Add" version="opset1">
			<data auto_broadcast="numpy" />
			<input>
				<port id="0" precision="FP32">
					<dim>1</dim>
					<dim>8</dim>
					<dim>128</dim>
					<dim>128</dim>
					<dim>128</dim>
				</port>
				<port id="1" precision="FP32">
					<dim>1</dim>
					<dim>8</dim>
					<dim>1</dim>
					<dim>1</dim>
					<dim>1</dim>
				</port>
			</input>
			<output>
				<port id="2" precision="FP32" names="StatefulPartitionedCall/3d_unet_decathlon/encodeA_bn0/FusedBatchNormV3:0">
					<dim>1</dim>
					<dim>8</dim>
					<dim>128</dim>
					<dim>128</dim>
					<dim>128</dim>
				</port>
			</output>
		</layer>
		<layer id="9" name="StatefulPartitionedCall/3d_unet_decathlon/encodeA_relu0/Relu" type="ReLU" version="opset1">
			<input>
				<port id="0" precision="FP32">
					<dim>1</dim>
					<dim>8</dim>
					<dim>128</dim>
					<dim>128</dim>
					<dim>128</dim>
				</port>
			</input>
			<output>
				<port id="1" precision="FP32" names="StatefulPartitionedCall/3d_unet_decathlon/encodeA_relu0/Relu:0">
					<dim>1</dim>
					<dim>8</dim>
					<dim>128</dim>
					<dim>128</dim>
					<dim>128</dim>
				</port>
			</output>
		</layer>
		<layer id="10" name="StatefulPartitionedCall/3d_unet_decathlon/encodeA_bn1/FusedBatchNormV3/mean/Fused_Mul__copy_compressed" type="Const" version="opset1">
			<data element_type="f16" shape="8, 8, 3, 3, 3" offset="488" size="3456" />
			<output>
				<port id="0" precision="FP16">
					<dim>8</dim>
					<dim>8</dim>
					<dim>3</dim>
					<dim>3</dim>
					<dim>3</dim>
				</port>
			</output>
		</layer>
		<layer id="11" name="StatefulPartitionedCall/3d_unet_decathlon/encodeA_bn1/FusedBatchNormV3/mean/Fused_Mul__copy" type="Convert" version="opset1">
			<data destination_type="f32" />
			<rt_info>
				<attribute name="decompression" version="0" />
			</rt_info>
			<input>
				<port id="0" precision="FP16">
					<dim>8</dim>
					<dim>8</dim>
					<dim>3</dim>
					<dim>3</dim>
					<dim>3</dim>
				</port>
			</input>
			<output>
				<port id="1" precision="FP32" names="StatefulPartitionedCall/3d_unet_decathlon/encodeA_conv1/Conv3D/ReadVariableOp:0">
					<dim>8</dim>
					<dim>8</dim>
					<dim>3</dim>
					<dim>3</dim>
					<dim>3</dim>
				</port>
			</output>
		</layer>
		<layer id="12" name="StatefulPartitionedCall/3d_unet_decathlon/encodeA_conv1/Conv3D" type="Convolution" version="opset1">
			<data strides="1, 1, 1" dilations="1, 1, 1" pads_begin="0, 0, 0" pads_end="0, 0, 0" auto_pad="same_upper" />
			<input>
				<port id="0" precision="FP32">
					<dim>1</dim>
					<dim>8</dim>
					<dim>128</dim>
					<dim>128</dim>
					<dim>128</dim>
				</port>
				<port id="1" precision="FP32">
					<dim>8</dim>
					<dim>8</dim>
					<dim>3</dim>
					<dim>3</dim>
					<dim>3</dim>
				</port>
			</input>
			<output>
				<port id="2" precision="FP32">
					<dim>1</dim>
					<dim>8</dim>
					<dim>128</dim>
					<dim>128</dim>
					<dim>128</dim>
				</port>
			</output>
		</layer>
		<layer id="13" name="data_add_70137018_compressed" type="Const" version="opset1">
			<data element_type="f16" shape="1, 8, 1, 1, 1" offset="3944" size="16" />
			<output>
				<port id="0" precision="FP16">
					<dim>1</dim>
					<dim>8</dim>
					<dim>1</dim>
					<dim>1</dim>
					<dim>1</dim>
				</port>
			</output>
		</layer>
		<layer id="14" name="data_add_70137018" type="Convert" version="opset1">
			<data destination_type="f32" />
			<rt_info>
				<attribute name="decompression" version="0" />
			</rt_info>
			<input>
				<port id="0" precision="FP16">
					<dim>1</dim>
					<dim>8</dim>
					<dim>1</dim>
					<dim>1</dim>
					<dim>1</dim>
				</port>
			</input>
			<output>
				<port id="1" precision="FP32">
					<dim>1</dim>
					<dim>8</dim>
					<dim>1</dim>
					<dim>1</dim>
					<dim>1</dim>
				</port>
			</output>
		</layer>
		<layer id="15" name="StatefulPartitionedCall/3d_unet_decathlon/encodeA_conv1/BiasAdd/Add/Fused_Add_" type="Add" version="opset1">
			<data auto_broadcast="numpy" />
			<input>
				<port id="0" precision="FP32">
					<dim>1</dim>
					<dim>8</dim>
					<dim>128</dim>
					<dim>128</dim>
					<dim>128</dim>
				</port>
				<port id="1" precision="FP32">
					<dim>1</dim>
					<dim>8</dim>
					<dim>1</dim>
					<dim>1</dim>
					<dim>1</dim>
				</port>
			</input>
			<output>
				<port id="2" precision="FP32" names="StatefulPartitionedCall/3d_unet_decathlon/encodeA_bn1/FusedBatchNormV3:0">
					<dim>1</dim>
					<dim>8</dim>
					<dim>128</dim>
					<dim>128</dim>
					<dim>128</dim>
				</port>
			</output>
		</layer>
		<layer id="16" name="StatefulPartitionedCall/3d_unet_decathlon/encodeA/Relu" type="ReLU" version="opset1">
			<input>
				<port id="0" precision="FP32">
					<dim>1</dim>
					<dim>8</dim>
					<dim>128</dim>
					<dim>128</dim>
					<dim>128</dim>
				</port>
			</input>
			<output>
				<port id="1" precision="FP32" names="StatefulPartitionedCall/3d_unet_decathlon/encodeA/Relu:0">
					<dim>1</dim>
					<dim>8</dim>
					<dim>128</dim>
					<dim>128</dim>
					<dim>128</dim>
				</port>
			</output>
		</layer>
		<layer id="17" name="StatefulPartitionedCall/3d_unet_decathlon/poolA/MaxPool3D" type="MaxPool" version="opset8">
			<data strides="2, 2, 2" dilations="1, 1, 1" pads_begin="0, 0, 0" pads_end="0, 0, 0" kernel="2, 2, 2" rounding_type="floor" auto_pad="valid" index_element_type="i64" axis="0" />
			<input>
				<port id="0" precision="FP32">
					<dim>1</dim>
					<dim>8</dim>
					<dim>128</dim>
					<dim>128</dim>
					<dim>128</dim>
				</port>
			</input>
			<output>
				<port id="1" precision="FP32" names="StatefulPartitionedCall/3d_unet_decathlon/poolA/MaxPool3D:0">
					<dim>1</dim>
					<dim>8</dim>
					<dim>64</dim>
					<dim>64</dim>
					<dim>64</dim>
				</port>
				<port id="2" precision="I64">
					<dim>1</dim>
					<dim>8</dim>
					<dim>64</dim>
					<dim>64</dim>
					<dim>64</dim>
				</port>
			</output>
		</layer>
		<layer id="18" name="StatefulPartitionedCall/3d_unet_decathlon/encodeB_bn0/FusedBatchNormV3/mean/Fused_Mul__copy_compressed" type="Const" version="opset1">
			<data element_type="f16" shape="16, 8, 3, 3, 3" offset="3960" size="6912" />
			<output>
				<port id="0" precision="FP16">
					<dim>16</dim>
					<dim>8</dim>
					<dim>3</dim>
					<dim>3</dim>
					<dim>3</dim>
				</port>
			</output>
		</layer>
		<layer id="19" name="StatefulPartitionedCall/3d_unet_decathlon/encodeB_bn0/FusedBatchNormV3/mean/Fused_Mul__copy" type="Convert" version="opset1">
			<data destination_type="f32" />
			<rt_info>
				<attribute name="decompression" version="0" />
			</rt_info>
			<input>
				<port id="0" precision="FP16">
					<dim>16</dim>
					<dim>8</dim>
					<dim>3</dim>
					<dim>3</dim>
					<dim>3</dim>
				</port>
			</input>
			<output>
				<port id="1" precision="FP32" names="StatefulPartitionedCall/3d_unet_decathlon/encodeB_conv0/Conv3D/ReadVariableOp:0">
					<dim>16</dim>
					<dim>8</dim>
					<dim>3</dim>
					<dim>3</dim>
					<dim>3</dim>
				</port>
			</output>
		</layer>
		<layer id="20" name="StatefulPartitionedCall/3d_unet_decathlon/encodeB_conv0/Conv3D" type="Convolution" version="opset1">
			<data strides="1, 1, 1" dilations="1, 1, 1" pads_begin="0, 0, 0" pads_end="0, 0, 0" auto_pad="same_upper" />
			<input>
				<port id="0" precision="FP32">
					<dim>1</dim>
					<dim>8</dim>
					<dim>64</dim>
					<dim>64</dim>
					<dim>64</dim>
				</port>
				<port id="1" precision="FP32">
					<dim>16</dim>
					<dim>8</dim>
					<dim>3</dim>
					<dim>3</dim>
					<dim>3</dim>
				</port>
			</input>
			<output>
				<port id="2" precision="FP32">
					<dim>1</dim>
					<dim>16</dim>
					<dim>64</dim>
					<dim>64</dim>
					<dim>64</dim>
				</port>
			</output>
		</layer>
		<layer id="21" name="data_add_70217026_compressed" type="Const" version="opset1">
			<data element_type="f16" shape="1, 16, 1, 1, 1" offset="10872" size="32" />
			<output>
				<port id="0" precision="FP16">
					<dim>1</dim>
					<dim>16</dim>
					<dim>1</dim>
					<dim>1</dim>
					<dim>1</dim>
				</port>
			</output>
		</layer>
		<layer id="22" name="data_add_70217026" type="Convert" version="opset1">
			<data destination_type="f32" />
			<rt_info>
				<attribute name="decompression" version="0" />
			</rt_info>
			<input>
				<port id="0" precision="FP16">
					<dim>1</dim>
					<dim>16</dim>
					<dim>1</dim>
					<dim>1</dim>
					<dim>1</dim>
				</port>
			</input>
			<output>
				<port id="1" precision="FP32">
					<dim>1</dim>
					<dim>16</dim>
					<dim>1</dim>
					<dim>1</dim>
					<dim>1</dim>
				</port>
			</output>
		</layer>
		<layer id="23" name="StatefulPartitionedCall/3d_unet_decathlon/encodeB_conv0/BiasAdd/Add/Fused_Add_" type="Add" version="opset1">
			<data auto_broadcast="numpy" />
			<input>
				<port id="0" precision="FP32">
					<dim>1</dim>
					<dim>16</dim>
					<dim>64</dim>
					<dim>64</dim>
					<dim>64</dim>
				</port>
				<port id="1" precision="FP32">
					<dim>1</dim>
					<dim>16</dim>
					<dim>1</dim>
					<dim>1</dim>
					<dim>1</dim>
				</port>
			</input>
			<output>
				<port id="2" precision="FP32" names="StatefulPartitionedCall/3d_unet_decathlon/encodeB_bn0/FusedBatchNormV3:0">
					<dim>1</dim>
					<dim>16</dim>
					<dim>64</dim>
					<dim>64</dim>
					<dim>64</dim>
				</port>
			</output>
		</layer>
		<layer id="24" name="StatefulPartitionedCall/3d_unet_decathlon/encodeB_relu0/Relu" type="ReLU" version="opset1">
			<input>
				<port id="0" precision="FP32">
					<dim>1</dim>
					<dim>16</dim>
					<dim>64</dim>
					<dim>64</dim>
					<dim>64</dim>
				</port>
			</input>
			<output>
				<port id="1" precision="FP32" names="StatefulPartitionedCall/3d_unet_decathlon/encodeB_relu0/Relu:0">
					<dim>1</dim>
					<dim>16</dim>
					<dim>64</dim>
					<dim>64</dim>
					<dim>64</dim>
				</port>
			</output>
		</layer>
		<layer id="25" name="StatefulPartitionedCall/3d_unet_decathlon/encodeB_bn1/FusedBatchNormV3/mean/Fused_Mul__copy_compressed" type="Const" version="opset1">
			<data element_type="f16" shape="16, 16, 3, 3, 3" offset="10904" size="13824" />
			<output>
				<port id="0" precision="FP16">
					<dim>16</dim>
					<dim>16</dim>
					<dim>3</dim>
					<dim>3</dim>
					<dim>3</dim>
				</port>
			</output>
		</layer>
		<layer id="26" name="StatefulPartitionedCall/3d_unet_decathlon/encodeB_bn1/FusedBatchNormV3/mean/Fused_Mul__copy" type="Convert" version="opset1">
			<data destination_type="f32" />
			<rt_info>
				<attribute name="decompression" version="0" />
			</rt_info>
			<input>
				<port id="0" precision="FP16">
					<dim>16</dim>
					<dim>16</dim>
					<dim>3</dim>
					<dim>3</dim>
					<dim>3</dim>
				</port>
			</input>
			<output>
				<port id="1" precision="FP32" names="StatefulPartitionedCall/3d_unet_decathlon/encodeB_conv1/Conv3D/ReadVariableOp:0">
					<dim>16</dim>
					<dim>16</dim>
					<dim>3</dim>
					<dim>3</dim>
					<dim>3</dim>
				</port>
			</output>
		</layer>
		<layer id="27" name="StatefulPartitionedCall/3d_unet_decathlon/encodeB_conv1/Conv3D" type="Convolution" version="opset1">
			<data strides="1, 1, 1" dilations="1, 1, 1" pads_begin="0, 0, 0" pads_end="0, 0, 0" auto_pad="same_upper" />
			<input>
				<port id="0" precision="FP32">
					<dim>1</dim>
					<dim>16</dim>
					<dim>64</dim>
					<dim>64</dim>
					<dim>64</dim>
				</port>
				<port id="1" precision="FP32">
					<dim>16</dim>
					<dim>16</dim>
					<dim>3</dim>
					<dim>3</dim>
					<dim>3</dim>
				</port>
			</input>
			<output>
				<port id="2" precision="FP32">
					<dim>1</dim>
					<dim>16</dim>
					<dim>64</dim>
					<dim>64</dim>
					<dim>64</dim>
				</port>
			</output>
		</layer>
		<layer id="28" name="data_add_70297034_compressed" type="Const" version="opset1">
			<data element_type="f16" shape="1, 16, 1, 1, 1" offset="24728" size="32" />
			<output>
				<port id="0" precision="FP16">
					<dim>1</dim>
					<dim>16</dim>
					<dim>1</dim>
					<dim>1</dim>
					<dim>1</dim>
				</port>
			</output>
		</layer>
		<layer id="29" name="data_add_70297034" type="Convert" version="opset1">
			<data destination_type="f32" />
			<rt_info>
				<attribute name="decompression" version="0" />
			</rt_info>
			<input>
				<port id="0" precision="FP16">
					<dim>1</dim>
					<dim>16</dim>
					<dim>1</dim>
					<dim>1</dim>
					<dim>1</dim>
				</port>
			</input>
			<output>
				<port id="1" precision="FP32">
					<dim>1</dim>
					<dim>16</dim>
					<dim>1</dim>
					<dim>1</dim>
					<dim>1</dim>
				</port>
			</output>
		</layer>
		<layer id="30" name="StatefulPartitionedCall/3d_unet_decathlon/encodeB_conv1/BiasAdd/Add/Fused_Add_" type="Add" version="opset1">
			<data auto_broadcast="numpy" />
			<input>
				<port id="0" precision="FP32">
					<dim>1</dim>
					<dim>16</dim>
					<dim>64</dim>
					<dim>64</dim>
					<dim>64</dim>
				</port>
				<port id="1" precision="FP32">
					<dim>1</dim>
					<dim>16</dim>
					<dim>1</dim>
					<dim>1</dim>
					<dim>1</dim>
				</port>
			</input>
			<output>
				<port id="2" precision="FP32" names="StatefulPartitionedCall/3d_unet_decathlon/encodeB_bn1/FusedBatchNormV3:0">
					<dim>1</dim>
					<dim>16</dim>
					<dim>64</dim>
					<dim>64</dim>
					<dim>64</dim>
				</port>
			</output>
		</layer>
		<layer id="31" name="StatefulPartitionedCall/3d_unet_decathlon/encodeB/Relu" type="ReLU" version="opset1">
			<input>
				<port id="0" precision="FP32">
					<dim>1</dim>
					<dim>16</dim>
					<dim>64</dim>
					<dim>64</dim>
					<dim>64</dim>
				</port>
			</input>
			<output>
				<port id="1" precision="FP32" names="StatefulPartitionedCall/3d_unet_decathlon/encodeB/Relu:0">
					<dim>1</dim>
					<dim>16</dim>
					<dim>64</dim>
					<dim>64</dim>
					<dim>64</dim>
				</port>
			</output>
		</layer>
		<layer id="32" name="StatefulPartitionedCall/3d_unet_decathlon/poolB/MaxPool3D" type="MaxPool" version="opset8">
			<data strides="2, 2, 2" dilations="1, 1, 1" pads_begin="0, 0, 0" pads_end="0, 0, 0" kernel="2, 2, 2" rounding_type="floor" auto_pad="valid" index_element_type="i64" axis="0" />
			<input>
				<port id="0" precision="FP32">
					<dim>1</dim>
					<dim>16</dim>
					<dim>64</dim>
					<dim>64</dim>
					<dim>64</dim>
				</port>
			</input>
			<output>
				<port id="1" precision="FP32" names="StatefulPartitionedCall/3d_unet_decathlon/poolB/MaxPool3D:0">
					<dim>1</dim>
					<dim>16</dim>
					<dim>32</dim>
					<dim>32</dim>
					<dim>32</dim>
				</port>
				<port id="2" precision="I64">
					<dim>1</dim>
					<dim>16</dim>
					<dim>32</dim>
					<dim>32</dim>
					<dim>32</dim>
				</port>
			</output>
		</layer>
		<layer id="33" name="StatefulPartitionedCall/3d_unet_decathlon/encodeC_bn0/FusedBatchNormV3/mean/Fused_Mul__copy_compressed" type="Const" version="opset1">
			<data element_type="f16" shape="32, 16, 3, 3, 3" offset="24760" size="27648" />
			<output>
				<port id="0" precision="FP16">
					<dim>32</dim>
					<dim>16</dim>
					<dim>3</dim>
					<dim>3</dim>
					<dim>3</dim>
				</port>
			</output>
		</layer>
		<layer id="34" name="StatefulPartitionedCall/3d_unet_decathlon/encodeC_bn0/FusedBatchNormV3/mean/Fused_Mul__copy" type="Convert" version="opset1">
			<data destination_type="f32" />
			<rt_info>
				<attribute name="decompression" version="0" />
			</rt_info>
			<input>
				<port id="0" precision="FP16">
					<dim>32</dim>
					<dim>16</dim>
					<dim>3</dim>
					<dim>3</dim>
					<dim>3</dim>
				</port>
			</input>
			<output>
				<port id="1" precision="FP32" names="StatefulPartitionedCall/3d_unet_decathlon/encodeC_conv0/Conv3D/ReadVariableOp:0">
					<dim>32</dim>
					<dim>16</dim>
					<dim>3</dim>
					<dim>3</dim>
					<dim>3</dim>
				</port>
			</output>
		</layer>
		<layer id="35" name="StatefulPartitionedCall/3d_unet_decathlon/encodeC_conv0/Conv3D" type="Convolution" version="opset1">
			<data strides="1, 1, 1" dilations="1, 1, 1" pads_begin="0, 0, 0" pads_end="0, 0, 0" auto_pad="same_upper" />
			<input>
				<port id="0" precision="FP32">
					<dim>1</dim>
					<dim>16</dim>
					<dim>32</dim>
					<dim>32</dim>
					<dim>32</dim>
				</port>
				<port id="1" precision="FP32">
					<dim>32</dim>
					<dim>16</dim>
					<dim>3</dim>
					<dim>3</dim>
					<dim>3</dim>
				</port>
			</input>
			<output>
				<port id="2" precision="FP32">
					<dim>1</dim>
					<dim>32</dim>
					<dim>32</dim>
					<dim>32</dim>
					<dim>32</dim>
				</port>
			</output>
		</layer>
		<layer id="36" name="data_add_70377042_compressed" type="Const" version="opset1">
			<data element_type="f16" shape="1, 32, 1, 1, 1" offset="52408" size="64" />
			<output>
				<port id="0" precision="FP16">
					<dim>1</dim>
					<dim>32</dim>
					<dim>1</dim>
					<dim>1</dim>
					<dim>1</dim>
				</port>
			</output>
		</layer>
		<layer id="37" name="data_add_70377042" type="Convert" version="opset1">
			<data destination_type="f32" />
			<rt_info>
				<attribute name="decompression" version="0" />
			</rt_info>
			<input>
				<port id="0" precision="FP16">
					<dim>1</dim>
					<dim>32</dim>
					<dim>1</dim>
					<dim>1</dim>
					<dim>1</dim>
				</port>
			</input>
			<output>
				<port id="1" precision="FP32">
					<dim>1</dim>
					<dim>32</dim>
					<dim>1</dim>
					<dim>1</dim>
					<dim>1</dim>
				</port>
			</output>
		</layer>
		<layer id="38" name="StatefulPartitionedCall/3d_unet_decathlon/encodeC_conv0/BiasAdd/Add/Fused_Add_" type="Add" version="opset1">
			<data auto_broadcast="numpy" />
			<input>
				<port id="0" precision="FP32">
					<dim>1</dim>
					<dim>32</dim>
					<dim>32</dim>
					<dim>32</dim>
					<dim>32</dim>
				</port>
				<port id="1" precision="FP32">
					<dim>1</dim>
					<dim>32</dim>
					<dim>1</dim>
					<dim>1</dim>
					<dim>1</dim>
				</port>
			</input>
			<output>
				<port id="2" precision="FP32" names="StatefulPartitionedCall/3d_unet_decathlon/encodeC_bn0/FusedBatchNormV3:0">
					<dim>1</dim>
					<dim>32</dim>
					<dim>32</dim>
					<dim>32</dim>
					<dim>32</dim>
				</port>
			</output>
		</layer>
		<layer id="39" name="StatefulPartitionedCall/3d_unet_decathlon/encodeC_relu0/Relu" type="ReLU" version="opset1">
			<input>
				<port id="0" precision="FP32">
					<dim>1</dim>
					<dim>32</dim>
					<dim>32</dim>
					<dim>32</dim>
					<dim>32</dim>
				</port>
			</input>
			<output>
				<port id="1" precision="FP32" names="StatefulPartitionedCall/3d_unet_decathlon/encodeC_relu0/Relu:0">
					<dim>1</dim>
					<dim>32</dim>
					<dim>32</dim>
					<dim>32</dim>
					<dim>32</dim>
				</port>
			</output>
		</layer>
		<layer id="40" name="StatefulPartitionedCall/3d_unet_decathlon/encodeC_bn1/FusedBatchNormV3/mean/Fused_Mul__copy_compressed" type="Const" version="opset1">
			<data element_type="f16" shape="32, 32, 3, 3, 3" offset="52472" size="55296" />
			<output>
				<port id="0" precision="FP16">
					<dim>32</dim>
					<dim>32</dim>
					<dim>3</dim>
					<dim>3</dim>
					<dim>3</dim>
				</port>
			</output>
		</layer>
		<layer id="41" name="StatefulPartitionedCall/3d_unet_decathlon/encodeC_bn1/FusedBatchNormV3/mean/Fused_Mul__copy" type="Convert" version="opset1">
			<data destination_type="f32" />
			<rt_info>
				<attribute name="decompression" version="0" />
			</rt_info>
			<input>
				<port id="0" precision="FP16">
					<dim>32</dim>
					<dim>32</dim>
					<dim>3</dim>
					<dim>3</dim>
					<dim>3</dim>
				</port>
			</input>
			<output>
				<port id="1" precision="FP32" names="StatefulPartitionedCall/3d_unet_decathlon/encodeC_conv1/Conv3D/ReadVariableOp:0">
					<dim>32</dim>
					<dim>32</dim>
					<dim>3</dim>
					<dim>3</dim>
					<dim>3</dim>
				</port>
			</output>
		</layer>
		<layer id="42" name="StatefulPartitionedCall/3d_unet_decathlon/encodeC_conv1/Conv3D" type="Convolution" version="opset1">
			<data strides="1, 1, 1" dilations="1, 1, 1" pads_begin="0, 0, 0" pads_end="0, 0, 0" auto_pad="same_upper" />
			<input>
				<port id="0" precision="FP32">
					<dim>1</dim>
					<dim>32</dim>
					<dim>32</dim>
					<dim>32</dim>
					<dim>32</dim>
				</port>
				<port id="1" precision="FP32">
					<dim>32</dim>
					<dim>32</dim>
					<dim>3</dim>
					<dim>3</dim>
					<dim>3</dim>
				</port>
			</input>
			<output>
				<port id="2" precision="FP32">
					<dim>1</dim>
					<dim>32</dim>
					<dim>32</dim>
					<dim>32</dim>
					<dim>32</dim>
				</port>
			</output>
		</layer>
		<layer id="43" name="data_add_70457050_compressed" type="Const" version="opset1">
			<data element_type="f16" shape="1, 32, 1, 1, 1" offset="107768" size="64" />
			<output>
				<port id="0" precision="FP16">
					<dim>1</dim>
					<dim>32</dim>
					<dim>1</dim>
					<dim>1</dim>
					<dim>1</dim>
				</port>
			</output>
		</layer>
		<layer id="44" name="data_add_70457050" type="Convert" version="opset1">
			<data destination_type="f32" />
			<rt_info>
				<attribute name="decompression" version="0" />
			</rt_info>
			<input>
				<port id="0" precision="FP16">
					<dim>1</dim>
					<dim>32</dim>
					<dim>1</dim>
					<dim>1</dim>
					<dim>1</dim>
				</port>
			</input>
			<output>
				<port id="1" precision="FP32">
					<dim>1</dim>
					<dim>32</dim>
					<dim>1</dim>
					<dim>1</dim>
					<dim>1</dim>
				</port>
			</output>
		</layer>
		<layer id="45" name="StatefulPartitionedCall/3d_unet_decathlon/encodeC_conv1/BiasAdd/Add/Fused_Add_" type="Add" version="opset1">
			<data auto_broadcast="numpy" />
			<input>
				<port id="0" precision="FP32">
					<dim>1</dim>
					<dim>32</dim>
					<dim>32</dim>
					<dim>32</dim>
					<dim>32</dim>
				</port>
				<port id="1" precision="FP32">
					<dim>1</dim>
					<dim>32</dim>
					<dim>1</dim>
					<dim>1</dim>
					<dim>1</dim>
				</port>
			</input>
			<output>
				<port id="2" precision="FP32" names="StatefulPartitionedCall/3d_unet_decathlon/encodeC_bn1/FusedBatchNormV3:0">
					<dim>1</dim>
					<dim>32</dim>
					<dim>32</dim>
					<dim>32</dim>
					<dim>32</dim>
				</port>
			</output>
		</layer>
		<layer id="46" name="StatefulPartitionedCall/3d_unet_decathlon/encodeC/Relu" type="ReLU" version="opset1">
			<input>
				<port id="0" precision="FP32">
					<dim>1</dim>
					<dim>32</dim>
					<dim>32</dim>
					<dim>32</dim>
					<dim>32</dim>
				</port>
			</input>
			<output>
				<port id="1" precision="FP32" names="StatefulPartitionedCall/3d_unet_decathlon/encodeC/Relu:0">
					<dim>1</dim>
					<dim>32</dim>
					<dim>32</dim>
					<dim>32</dim>
					<dim>32</dim>
				</port>
			</output>
		</layer>
		<layer id="47" name="StatefulPartitionedCall/3d_unet_decathlon/poolC/MaxPool3D" type="MaxPool" version="opset8">
			<data strides="2, 2, 2" dilations="1, 1, 1" pads_begin="0, 0, 0" pads_end="0, 0, 0" kernel="2, 2, 2" rounding_type="floor" auto_pad="valid" index_element_type="i64" axis="0" />
			<input>
				<port id="0" precision="FP32">
					<dim>1</dim>
					<dim>32</dim>
					<dim>32</dim>
					<dim>32</dim>
					<dim>32</dim>
				</port>
			</input>
			<output>
				<port id="1" precision="FP32" names="StatefulPartitionedCall/3d_unet_decathlon/poolC/MaxPool3D:0">
					<dim>1</dim>
					<dim>32</dim>
					<dim>16</dim>
					<dim>16</dim>
					<dim>16</dim>
				</port>
				<port id="2" precision="I64">
					<dim>1</dim>
					<dim>32</dim>
					<dim>16</dim>
					<dim>16</dim>
					<dim>16</dim>
				</port>
			</output>
		</layer>
		<layer id="48" name="StatefulPartitionedCall/3d_unet_decathlon/encodeD_bn0/FusedBatchNormV3/mean/Fused_Mul__copy_compressed" type="Const" version="opset1">
			<data element_type="f16" shape="64, 32, 3, 3, 3" offset="107832" size="110592" />
			<output>
				<port id="0" precision="FP16">
					<dim>64</dim>
					<dim>32</dim>
					<dim>3</dim>
					<dim>3</dim>
					<dim>3</dim>
				</port>
			</output>
		</layer>
		<layer id="49" name="StatefulPartitionedCall/3d_unet_decathlon/encodeD_bn0/FusedBatchNormV3/mean/Fused_Mul__copy" type="Convert" version="opset1">
			<data destination_type="f32" />
			<rt_info>
				<attribute name="decompression" version="0" />
			</rt_info>
			<input>
				<port id="0" precision="FP16">
					<dim>64</dim>
					<dim>32</dim>
					<dim>3</dim>
					<dim>3</dim>
					<dim>3</dim>
				</port>
			</input>
			<output>
				<port id="1" precision="FP32" names="StatefulPartitionedCall/3d_unet_decathlon/encodeD_conv0/Conv3D/ReadVariableOp:0">
					<dim>64</dim>
					<dim>32</dim>
					<dim>3</dim>
					<dim>3</dim>
					<dim>3</dim>
				</port>
			</output>
		</layer>
		<layer id="50" name="StatefulPartitionedCall/3d_unet_decathlon/encodeD_conv0/Conv3D" type="Convolution" version="opset1">
			<data strides="1, 1, 1" dilations="1, 1, 1" pads_begin="0, 0, 0" pads_end="0, 0, 0" auto_pad="same_upper" />
			<input>
				<port id="0" precision="FP32">
					<dim>1</dim>
					<dim>32</dim>
					<dim>16</dim>
					<dim>16</dim>
					<dim>16</dim>
				</port>
				<port id="1" precision="FP32">
					<dim>64</dim>
					<dim>32</dim>
					<dim>3</dim>
					<dim>3</dim>
					<dim>3</dim>
				</port>
			</input>
			<output>
				<port id="2" precision="FP32">
					<dim>1</dim>
					<dim>64</dim>
					<dim>16</dim>
					<dim>16</dim>
					<dim>16</dim>
				</port>
			</output>
		</layer>
		<layer id="51" name="data_add_70537058_compressed" type="Const" version="opset1">
			<data element_type="f16" shape="1, 64, 1, 1, 1" offset="218424" size="128" />
			<output>
				<port id="0" precision="FP16">
					<dim>1</dim>
					<dim>64</dim>
					<dim>1</dim>
					<dim>1</dim>
					<dim>1</dim>
				</port>
			</output>
		</layer>
		<layer id="52" name="data_add_70537058" type="Convert" version="opset1">
			<data destination_type="f32" />
			<rt_info>
				<attribute name="decompression" version="0" />
			</rt_info>
			<input>
				<port id="0" precision="FP16">
					<dim>1</dim>
					<dim>64</dim>
					<dim>1</dim>
					<dim>1</dim>
					<dim>1</dim>
				</port>
			</input>
			<output>
				<port id="1" precision="FP32">
					<dim>1</dim>
					<dim>64</dim>
					<dim>1</dim>
					<dim>1</dim>
					<dim>1</dim>
				</port>
			</output>
		</layer>
		<layer id="53" name="StatefulPartitionedCall/3d_unet_decathlon/encodeD_conv0/BiasAdd/Add/Fused_Add_" type="Add" version="opset1">
			<data auto_broadcast="numpy" />
			<input>
				<port id="0" precision="FP32">
					<dim>1</dim>
					<dim>64</dim>
					<dim>16</dim>
					<dim>16</dim>
					<dim>16</dim>
				</port>
				<port id="1" precision="FP32">
					<dim>1</dim>
					<dim>64</dim>
					<dim>1</dim>
					<dim>1</dim>
					<dim>1</dim>
				</port>
			</input>
			<output>
				<port id="2" precision="FP32" names="StatefulPartitionedCall/3d_unet_decathlon/encodeD_bn0/FusedBatchNormV3:0">
					<dim>1</dim>
					<dim>64</dim>
					<dim>16</dim>
					<dim>16</dim>
					<dim>16</dim>
				</port>
			</output>
		</layer>
		<layer id="54" name="StatefulPartitionedCall/3d_unet_decathlon/encodeD_relu0/Relu" type="ReLU" version="opset1">
			<input>
				<port id="0" precision="FP32">
					<dim>1</dim>
					<dim>64</dim>
					<dim>16</dim>
					<dim>16</dim>
					<dim>16</dim>
				</port>
			</input>
			<output>
				<port id="1" precision="FP32" names="StatefulPartitionedCall/3d_unet_decathlon/encodeD_relu0/Relu:0">
					<dim>1</dim>
					<dim>64</dim>
					<dim>16</dim>
					<dim>16</dim>
					<dim>16</dim>
				</port>
			</output>
		</layer>
		<layer id="55" name="StatefulPartitionedCall/3d_unet_decathlon/encodeD_bn1/FusedBatchNormV3/mean/Fused_Mul__copy_compressed" type="Const" version="opset1">
			<data element_type="f16" shape="64, 64, 3, 3, 3" offset="218552" size="221184" />
			<output>
				<port id="0" precision="FP16">
					<dim>64</dim>
					<dim>64</dim>
					<dim>3</dim>
					<dim>3</dim>
					<dim>3</dim>
				</port>
			</output>
		</layer>
		<layer id="56" name="StatefulPartitionedCall/3d_unet_decathlon/encodeD_bn1/FusedBatchNormV3/mean/Fused_Mul__copy" type="Convert" version="opset1">
			<data destination_type="f32" />
			<rt_info>
				<attribute name="decompression" version="0" />
			</rt_info>
			<input>
				<port id="0" precision="FP16">
					<dim>64</dim>
					<dim>64</dim>
					<dim>3</dim>
					<dim>3</dim>
					<dim>3</dim>
				</port>
			</input>
			<output>
				<port id="1" precision="FP32" names="StatefulPartitionedCall/3d_unet_decathlon/encodeD_conv1/Conv3D/ReadVariableOp:0">
					<dim>64</dim>
					<dim>64</dim>
					<dim>3</dim>
					<dim>3</dim>
					<dim>3</dim>
				</port>
			</output>
		</layer>
		<layer id="57" name="StatefulPartitionedCall/3d_unet_decathlon/encodeD_conv1/Conv3D" type="Convolution" version="opset1">
			<data strides="1, 1, 1" dilations="1, 1, 1" pads_begin="0, 0, 0" pads_end="0, 0, 0" auto_pad="same_upper" />
			<input>
				<port id="0" precision="FP32">
					<dim>1</dim>
					<dim>64</dim>
					<dim>16</dim>
					<dim>16</dim>
					<dim>16</dim>
				</port>
				<port id="1" precision="FP32">
					<dim>64</dim>
					<dim>64</dim>
					<dim>3</dim>
					<dim>3</dim>
					<dim>3</dim>
				</port>
			</input>
			<output>
				<port id="2" precision="FP32">
					<dim>1</dim>
					<dim>64</dim>
					<dim>16</dim>
					<dim>16</dim>
					<dim>16</dim>
				</port>
			</output>
		</layer>
		<layer id="58" name="data_add_70617066_compressed" type="Const" version="opset1">
			<data element_type="f16" shape="1, 64, 1, 1, 1" offset="439736" size="128" />
			<output>
				<port id="0" precision="FP16">
					<dim>1</dim>
					<dim>64</dim>
					<dim>1</dim>
					<dim>1</dim>
					<dim>1</dim>
				</port>
			</output>
		</layer>
		<layer id="59" name="data_add_70617066" type="Convert" version="opset1">
			<data destination_type="f32" />
			<rt_info>
				<attribute name="decompression" version="0" />
			</rt_info>
			<input>
				<port id="0" precision="FP16">
					<dim>1</dim>
					<dim>64</dim>
					<dim>1</dim>
					<dim>1</dim>
					<dim>1</dim>
				</port>
			</input>
			<output>
				<port id="1" precision="FP32">
					<dim>1</dim>
					<dim>64</dim>
					<dim>1</dim>
					<dim>1</dim>
					<dim>1</dim>
				</port>
			</output>
		</layer>
		<layer id="60" name="StatefulPartitionedCall/3d_unet_decathlon/encodeD_conv1/BiasAdd/Add/Fused_Add_" type="Add" version="opset1">
			<data auto_broadcast="numpy" />
			<input>
				<port id="0" precision="FP32">
					<dim>1</dim>
					<dim>64</dim>
					<dim>16</dim>
					<dim>16</dim>
					<dim>16</dim>
				</port>
				<port id="1" precision="FP32">
					<dim>1</dim>
					<dim>64</dim>
					<dim>1</dim>
					<dim>1</dim>
					<dim>1</dim>
				</port>
			</input>
			<output>
				<port id="2" precision="FP32" names="StatefulPartitionedCall/3d_unet_decathlon/encodeD_bn1/FusedBatchNormV3:0">
					<dim>1</dim>
					<dim>64</dim>
					<dim>16</dim>
					<dim>16</dim>
					<dim>16</dim>
				</port>
			</output>
		</layer>
		<layer id="61" name="StatefulPartitionedCall/3d_unet_decathlon/encodeD/Relu" type="ReLU" version="opset1">
			<input>
				<port id="0" precision="FP32">
					<dim>1</dim>
					<dim>64</dim>
					<dim>16</dim>
					<dim>16</dim>
					<dim>16</dim>
				</port>
			</input>
			<output>
				<port id="1" precision="FP32" names="StatefulPartitionedCall/3d_unet_decathlon/encodeD/Relu:0">
					<dim>1</dim>
					<dim>64</dim>
					<dim>16</dim>
					<dim>16</dim>
					<dim>16</dim>
				</port>
			</output>
		</layer>
		<layer id="62" name="StatefulPartitionedCall/3d_unet_decathlon/poolD/MaxPool3D" type="MaxPool" version="opset8">
			<data strides="2, 2, 2" dilations="1, 1, 1" pads_begin="0, 0, 0" pads_end="0, 0, 0" kernel="2, 2, 2" rounding_type="floor" auto_pad="valid" index_element_type="i64" axis="0" />
			<input>
				<port id="0" precision="FP32">
					<dim>1</dim>
					<dim>64</dim>
					<dim>16</dim>
					<dim>16</dim>
					<dim>16</dim>
				</port>
			</input>
			<output>
				<port id="1" precision="FP32" names="StatefulPartitionedCall/3d_unet_decathlon/poolD/MaxPool3D:0">
					<dim>1</dim>
					<dim>64</dim>
					<dim>8</dim>
					<dim>8</dim>
					<dim>8</dim>
				</port>
				<port id="2" precision="I64">
					<dim>1</dim>
					<dim>64</dim>
					<dim>8</dim>
					<dim>8</dim>
					<dim>8</dim>
				</port>
			</output>
		</layer>
		<layer id="63" name="StatefulPartitionedCall/3d_unet_decathlon/encodeE_bn0/FusedBatchNormV3/mean/Fused_Mul__copy_compressed" type="Const" version="opset1">
			<data element_type="f16" shape="128, 64, 3, 3, 3" offset="439864" size="442368" />
			<output>
				<port id="0" precision="FP16">
					<dim>128</dim>
					<dim>64</dim>
					<dim>3</dim>
					<dim>3</dim>
					<dim>3</dim>
				</port>
			</output>
		</layer>
		<layer id="64" name="StatefulPartitionedCall/3d_unet_decathlon/encodeE_bn0/FusedBatchNormV3/mean/Fused_Mul__copy" type="Convert" version="opset1">
			<data destination_type="f32" />
			<rt_info>
				<attribute name="decompression" version="0" />
			</rt_info>
			<input>
				<port id="0" precision="FP16">
					<dim>128</dim>
					<dim>64</dim>
					<dim>3</dim>
					<dim>3</dim>
					<dim>3</dim>
				</port>
			</input>
			<output>
				<port id="1" precision="FP32" names="StatefulPartitionedCall/3d_unet_decathlon/encodeE_conv0/Conv3D/ReadVariableOp:0">
					<dim>128</dim>
					<dim>64</dim>
					<dim>3</dim>
					<dim>3</dim>
					<dim>3</dim>
				</port>
			</output>
		</layer>
		<layer id="65" name="StatefulPartitionedCall/3d_unet_decathlon/encodeE_conv0/Conv3D" type="Convolution" version="opset1">
			<data strides="1, 1, 1" dilations="1, 1, 1" pads_begin="0, 0, 0" pads_end="0, 0, 0" auto_pad="same_upper" />
			<input>
				<port id="0" precision="FP32">
					<dim>1</dim>
					<dim>64</dim>
					<dim>8</dim>
					<dim>8</dim>
					<dim>8</dim>
				</port>
				<port id="1" precision="FP32">
					<dim>128</dim>
					<dim>64</dim>
					<dim>3</dim>
					<dim>3</dim>
					<dim>3</dim>
				</port>
			</input>
			<output>
				<port id="2" precision="FP32">
					<dim>1</dim>
					<dim>128</dim>
					<dim>8</dim>
					<dim>8</dim>
					<dim>8</dim>
				</port>
			</output>
		</layer>
		<layer id="66" name="data_add_70697074_compressed" type="Const" version="opset1">
			<data element_type="f16" shape="1, 128, 1, 1, 1" offset="882232" size="256" />
			<output>
				<port id="0" precision="FP16">
					<dim>1</dim>
					<dim>128</dim>
					<dim>1</dim>
					<dim>1</dim>
					<dim>1</dim>
				</port>
			</output>
		</layer>
		<layer id="67" name="data_add_70697074" type="Convert" version="opset1">
			<data destination_type="f32" />
			<rt_info>
				<attribute name="decompression" version="0" />
			</rt_info>
			<input>
				<port id="0" precision="FP16">
					<dim>1</dim>
					<dim>128</dim>
					<dim>1</dim>
					<dim>1</dim>
					<dim>1</dim>
				</port>
			</input>
			<output>
				<port id="1" precision="FP32">
					<dim>1</dim>
					<dim>128</dim>
					<dim>1</dim>
					<dim>1</dim>
					<dim>1</dim>
				</port>
			</output>
		</layer>
		<layer id="68" name="StatefulPartitionedCall/3d_unet_decathlon/encodeE_conv0/BiasAdd/Add/Fused_Add_" type="Add" version="opset1">
			<data auto_broadcast="numpy" />
			<input>
				<port id="0" precision="FP32">
					<dim>1</dim>
					<dim>128</dim>
					<dim>8</dim>
					<dim>8</dim>
					<dim>8</dim>
				</port>
				<port id="1" precision="FP32">
					<dim>1</dim>
					<dim>128</dim>
					<dim>1</dim>
					<dim>1</dim>
					<dim>1</dim>
				</port>
			</input>
			<output>
				<port id="2" precision="FP32" names="StatefulPartitionedCall/3d_unet_decathlon/encodeE_bn0/FusedBatchNormV3:0">
					<dim>1</dim>
					<dim>128</dim>
					<dim>8</dim>
					<dim>8</dim>
					<dim>8</dim>
				</port>
			</output>
		</layer>
		<layer id="69" name="StatefulPartitionedCall/3d_unet_decathlon/encodeE_relu0/Relu" type="ReLU" version="opset1">
			<input>
				<port id="0" precision="FP32">
					<dim>1</dim>
					<dim>128</dim>
					<dim>8</dim>
					<dim>8</dim>
					<dim>8</dim>
				</port>
			</input>
			<output>
				<port id="1" precision="FP32" names="StatefulPartitionedCall/3d_unet_decathlon/encodeE_relu0/Relu:0">
					<dim>1</dim>
					<dim>128</dim>
					<dim>8</dim>
					<dim>8</dim>
					<dim>8</dim>
				</port>
			</output>
		</layer>
		<layer id="70" name="StatefulPartitionedCall/3d_unet_decathlon/encodeE_bn1/FusedBatchNormV3/mean/Fused_Mul__copy_compressed" type="Const" version="opset1">
			<data element_type="f16" shape="128, 128, 3, 3, 3" offset="882488" size="884736" />
			<output>
				<port id="0" precision="FP16">
					<dim>128</dim>
					<dim>128</dim>
					<dim>3</dim>
					<dim>3</dim>
					<dim>3</dim>
				</port>
			</output>
		</layer>
		<layer id="71" name="StatefulPartitionedCall/3d_unet_decathlon/encodeE_bn1/FusedBatchNormV3/mean/Fused_Mul__copy" type="Convert" version="opset1">
			<data destination_type="f32" />
			<rt_info>
				<attribute name="decompression" version="0" />
			</rt_info>
			<input>
				<port id="0" precision="FP16">
					<dim>128</dim>
					<dim>128</dim>
					<dim>3</dim>
					<dim>3</dim>
					<dim>3</dim>
				</port>
			</input>
			<output>
				<port id="1" precision="FP32" names="StatefulPartitionedCall/3d_unet_decathlon/encodeE_conv1/Conv3D/ReadVariableOp:0">
					<dim>128</dim>
					<dim>128</dim>
					<dim>3</dim>
					<dim>3</dim>
					<dim>3</dim>
				</port>
			</output>
		</layer>
		<layer id="72" name="StatefulPartitionedCall/3d_unet_decathlon/encodeE_conv1/Conv3D" type="Convolution" version="opset1">
			<data strides="1, 1, 1" dilations="1, 1, 1" pads_begin="0, 0, 0" pads_end="0, 0, 0" auto_pad="same_upper" />
			<input>
				<port id="0" precision="FP32">
					<dim>1</dim>
					<dim>128</dim>
					<dim>8</dim>
					<dim>8</dim>
					<dim>8</dim>
				</port>
				<port id="1" precision="FP32">
					<dim>128</dim>
					<dim>128</dim>
					<dim>3</dim>
					<dim>3</dim>
					<dim>3</dim>
				</port>
			</input>
			<output>
				<port id="2" precision="FP32">
					<dim>1</dim>
					<dim>128</dim>
					<dim>8</dim>
					<dim>8</dim>
					<dim>8</dim>
				</port>
			</output>
		</layer>
		<layer id="73" name="data_add_70777082_compressed" type="Const" version="opset1">
			<data element_type="f16" shape="1, 128, 1, 1, 1" offset="1767224" size="256" />
			<output>
				<port id="0" precision="FP16">
					<dim>1</dim>
					<dim>128</dim>
					<dim>1</dim>
					<dim>1</dim>
					<dim>1</dim>
				</port>
			</output>
		</layer>
		<layer id="74" name="data_add_70777082" type="Convert" version="opset1">
			<data destination_type="f32" />
			<rt_info>
				<attribute name="decompression" version="0" />
			</rt_info>
			<input>
				<port id="0" precision="FP16">
					<dim>1</dim>
					<dim>128</dim>
					<dim>1</dim>
					<dim>1</dim>
					<dim>1</dim>
				</port>
			</input>
			<output>
				<port id="1" precision="FP32">
					<dim>1</dim>
					<dim>128</dim>
					<dim>1</dim>
					<dim>1</dim>
					<dim>1</dim>
				</port>
			</output>
		</layer>
		<layer id="75" name="StatefulPartitionedCall/3d_unet_decathlon/encodeE_conv1/BiasAdd/Add/Fused_Add_" type="Add" version="opset1">
			<data auto_broadcast="numpy" />
			<input>
				<port id="0" precision="FP32">
					<dim>1</dim>
					<dim>128</dim>
					<dim>8</dim>
					<dim>8</dim>
					<dim>8</dim>
				</port>
				<port id="1" precision="FP32">
					<dim>1</dim>
					<dim>128</dim>
					<dim>1</dim>
					<dim>1</dim>
					<dim>1</dim>
				</port>
			</input>
			<output>
				<port id="2" precision="FP32" names="StatefulPartitionedCall/3d_unet_decathlon/encodeE_bn1/FusedBatchNormV3:0">
					<dim>1</dim>
					<dim>128</dim>
					<dim>8</dim>
					<dim>8</dim>
					<dim>8</dim>
				</port>
			</output>
		</layer>
		<layer id="76" name="StatefulPartitionedCall/3d_unet_decathlon/encodeE/Relu" type="ReLU" version="opset1">
			<input>
				<port id="0" precision="FP32">
					<dim>1</dim>
					<dim>128</dim>
					<dim>8</dim>
					<dim>8</dim>
					<dim>8</dim>
				</port>
			</input>
			<output>
				<port id="1" precision="FP32" names="StatefulPartitionedCall/3d_unet_decathlon/encodeE/Relu:0">
					<dim>1</dim>
					<dim>128</dim>
					<dim>8</dim>
					<dim>8</dim>
					<dim>8</dim>
				</port>
			</output>
		</layer>
		<layer id="77" name="StatefulPartitionedCall/3d_unet_decathlon/transconvE/conv3d_transpose/ReadVariableOp_compressed" type="Const" version="opset1">
			<data element_type="f16" shape="128, 64, 2, 2, 2" offset="1767480" size="131072" />
			<output>
				<port id="0" precision="FP16">
					<dim>128</dim>
					<dim>64</dim>
					<dim>2</dim>
					<dim>2</dim>
					<dim>2</dim>
				</port>
			</output>
		</layer>
		<layer id="78" name="StatefulPartitionedCall/3d_unet_decathlon/transconvE/conv3d_transpose/ReadVariableOp" type="Convert" version="opset1">
			<data destination_type="f32" />
			<rt_info>
				<attribute name="decompression" version="0" />
			</rt_info>
			<input>
				<port id="0" precision="FP16">
					<dim>128</dim>
					<dim>64</dim>
					<dim>2</dim>
					<dim>2</dim>
					<dim>2</dim>
				</port>
			</input>
			<output>
				<port id="1" precision="FP32" names="StatefulPartitionedCall/3d_unet_decathlon/transconvE/conv3d_transpose/ReadVariableOp:0">
					<dim>128</dim>
					<dim>64</dim>
					<dim>2</dim>
					<dim>2</dim>
					<dim>2</dim>
				</port>
			</output>
		</layer>
		<layer id="79" name="StatefulPartitionedCall/3d_unet_decathlon/transconvE/Shape" type="ShapeOf" version="opset3">
			<data output_type="i32" />
			<input>
				<port id="0" precision="FP32">
					<dim>1</dim>
					<dim>128</dim>
					<dim>8</dim>
					<dim>8</dim>
					<dim>8</dim>
				</port>
			</input>
			<output>
				<port id="1" precision="I32">
					<dim>5</dim>
				</port>
			</output>
		</layer>
		<layer id="80" name="StatefulPartitionedCall/3d_unet_decathlon/transconvE/Shape/GatherNCHWtoNHWC_input_port_1/value907813620" type="Const" version="opset1">
			<data element_type="i32" shape="5" offset="1898552" size="20" />
			<output>
				<port id="0" precision="I32">
					<dim>5</dim>
				</port>
			</output>
		</layer>
		<layer id="81" name="StatefulPartitionedCall/3d_unet_decathlon/transconvE/Shape/GatherNCHWtoNHWC_input_port_2/value908013623" type="Const" version="opset1">
			<data element_type="i64" shape="" offset="1898572" size="8" />
			<output>
				<port id="0" precision="I64" />
			</output>
		</layer>
		<layer id="82" name="StatefulPartitionedCall/3d_unet_decathlon/transconvE/Shape/GatherNCHWtoNHWC" type="Gather" version="opset8">
			<data batch_dims="0" />
			<input>
				<port id="0" precision="I32">
					<dim>5</dim>
				</port>
				<port id="1" precision="I32">
					<dim>5</dim>
				</port>
				<port id="2" precision="I64" />
			</input>
			<output>
				<port id="3" precision="I32" names="StatefulPartitionedCall/3d_unet_decathlon/transconvE/Shape:0">
					<dim>5</dim>
				</port>
			</output>
		</layer>
		<layer id="83" name="StatefulPartitionedCall/3d_unet_decathlon/transconvE/strided_slice/stack" type="Const" version="opset1">
			<data element_type="i64" shape="1" offset="1898572" size="8" />
			<output>
				<port id="0" precision="I64" names="StatefulPartitionedCall/3d_unet_decathlon/transconvE/strided_slice/stack:0">
					<dim>1</dim>
				</port>
			</output>
		</layer>
		<layer id="84" name="StatefulPartitionedCall/3d_unet_decathlon/transconvE/strided_slice/stack_1" type="Const" version="opset1">
			<data element_type="i64" shape="1" offset="1898580" size="8" />
			<output>
				<port id="0" precision="I64" names="StatefulPartitionedCall/3d_unet_decathlon/transconvE/strided_slice/stack_1:0">
					<dim>1</dim>
				</port>
			</output>
		</layer>
		<layer id="85" name="StatefulPartitionedCall/3d_unet_decathlon/transconvE/strided_slice/stack_2" type="Const" version="opset1">
			<data element_type="i64" shape="1" offset="1898580" size="8" />
			<output>
				<port id="0" precision="I64" names="StatefulPartitionedCall/3d_unet_decathlon/transconvE/strided_slice/stack_2:0">
					<dim>1</dim>
				</port>
			</output>
		</layer>
		<layer id="86" name="StatefulPartitionedCall/3d_unet_decathlon/transconvE/strided_slice" type="StridedSlice" version="opset1">
			<data begin_mask="0" end_mask="0" new_axis_mask="0" shrink_axis_mask="1" ellipsis_mask="0" />
			<input>
				<port id="0" precision="I32">
					<dim>5</dim>
				</port>
				<port id="1" precision="I64">
					<dim>1</dim>
				</port>
				<port id="2" precision="I64">
					<dim>1</dim>
				</port>
				<port id="3" precision="I64">
					<dim>1</dim>
				</port>
			</input>
			<output>
				<port id="4" precision="I32" names="StatefulPartitionedCall/3d_unet_decathlon/transconvE/strided_slice:0" />
			</output>
		</layer>
		<layer id="87" name="StatefulPartitionedCall/3d_unet_decathlon/transconvE/stack/Unsqueeze_input_port_1/value" type="Const" version="opset1">
			<data element_type="i64" shape="1" offset="1898572" size="8" />
			<output>
				<port id="0" precision="I64">
					<dim>1</dim>
				</port>
			</output>
		</layer>
		<layer id="88" name="StatefulPartitionedCall/3d_unet_decathlon/transconvE/stack/Unsqueeze" type="Unsqueeze" version="opset1">
			<input>
				<port id="0" precision="I32" />
				<port id="1" precision="I64">
					<dim>1</dim>
				</port>
			</input>
			<output>
				<port id="2" precision="I32">
					<dim>1</dim>
				</port>
			</output>
		</layer>
		<layer id="89" name="StatefulPartitionedCall/3d_unet_decathlon/transconvE/strided_slice_1/stack" type="Const" version="opset1">
			<data element_type="i64" shape="1" offset="1898580" size="8" />
			<output>
				<port id="0" precision="I64" names="StatefulPartitionedCall/3d_unet_decathlon/transconvE/strided_slice_1/stack:0">
					<dim>1</dim>
				</port>
			</output>
		</layer>
		<layer id="90" name="StatefulPartitionedCall/3d_unet_decathlon/transconvE/strided_slice_1/stack_1" type="Const" version="opset1">
			<data element_type="i64" shape="1" offset="1898588" size="8" />
			<output>
				<port id="0" precision="I64" names="StatefulPartitionedCall/3d_unet_decathlon/transconvE/strided_slice_1/stack_1:0">
					<dim>1</dim>
				</port>
			</output>
		</layer>
		<layer id="91" name="StatefulPartitionedCall/3d_unet_decathlon/transconvE/strided_slice_1/stack_2" type="Const" version="opset1">
			<data element_type="i64" shape="1" offset="1898580" size="8" />
			<output>
				<port id="0" precision="I64" names="StatefulPartitionedCall/3d_unet_decathlon/transconvE/strided_slice_1/stack_2:0">
					<dim>1</dim>
				</port>
			</output>
		</layer>
		<layer id="92" name="StatefulPartitionedCall/3d_unet_decathlon/transconvE/strided_slice_1" type="StridedSlice" version="opset1">
			<data begin_mask="0" end_mask="0" new_axis_mask="0" shrink_axis_mask="1" ellipsis_mask="0" />
			<input>
				<port id="0" precision="I32">
					<dim>5</dim>
				</port>
				<port id="1" precision="I64">
					<dim>1</dim>
				</port>
				<port id="2" precision="I64">
					<dim>1</dim>
				</port>
				<port id="3" precision="I64">
					<dim>1</dim>
				</port>
			</input>
			<output>
				<port id="4" precision="I32" names="StatefulPartitionedCall/3d_unet_decathlon/transconvE/strided_slice_1:0" />
			</output>
		</layer>
		<layer id="93" name="StatefulPartitionedCall/3d_unet_decathlon/transconvE/mul/y" type="Const" version="opset1">
			<data element_type="i32" shape="" offset="1898596" size="4" />
			<output>
				<port id="0" precision="I32" names="StatefulPartitionedCall/3d_unet_decathlon/transconvE/mul/y:0" />
			</output>
		</layer>
		<layer id="94" name="StatefulPartitionedCall/3d_unet_decathlon/transconvE/mul" type="Multiply" version="opset1">
			<data auto_broadcast="numpy" />
			<input>
				<port id="0" precision="I32" />
				<port id="1" precision="I32" />
			</input>
			<output>
				<port id="2" precision="I32" names="StatefulPartitionedCall/3d_unet_decathlon/transconvE/mul:0" />
			</output>
		</layer>
		<layer id="95" name="StatefulPartitionedCall/3d_unet_decathlon/transconvE/stack/Unsqueeze585_input_port_1/value" type="Const" version="opset1">
			<data element_type="i64" shape="1" offset="1898572" size="8" />
			<output>
				<port id="0" precision="I64">
					<dim>1</dim>
				</port>
			</output>
		</layer>
		<layer id="96" name="StatefulPartitionedCall/3d_unet_decathlon/transconvE/stack/Unsqueeze585" type="Unsqueeze" version="opset1">
			<input>
				<port id="0" precision="I32" />
				<port id="1" precision="I64">
					<dim>1</dim>
				</port>
			</input>
			<output>
				<port id="2" precision="I32">
					<dim>1</dim>
				</port>
			</output>
		</layer>
		<layer id="97" name="StatefulPartitionedCall/3d_unet_decathlon/transconvE/strided_slice_2/stack" type="Const" version="opset1">
			<data element_type="i64" shape="1" offset="1898588" size="8" />
			<output>
				<port id="0" precision="I64" names="StatefulPartitionedCall/3d_unet_decathlon/transconvE/strided_slice_2/stack:0">
					<dim>1</dim>
				</port>
			</output>
		</layer>
		<layer id="98" name="StatefulPartitionedCall/3d_unet_decathlon/transconvE/strided_slice_2/stack_1" type="Const" version="opset1">
			<data element_type="i64" shape="1" offset="1898600" size="8" />
			<output>
				<port id="0" precision="I64" names="StatefulPartitionedCall/3d_unet_decathlon/transconvE/strided_slice_2/stack_1:0">
					<dim>1</dim>
				</port>
			</output>
		</layer>
		<layer id="99" name="StatefulPartitionedCall/3d_unet_decathlon/transconvE/strided_slice_2/stack_2" type="Const" version="opset1">
			<data element_type="i64" shape="1" offset="1898580" size="8" />
			<output>
				<port id="0" precision="I64" names="StatefulPartitionedCall/3d_unet_decathlon/transconvE/strided_slice_2/stack_2:0">
					<dim>1</dim>
				</port>
			</output>
		</layer>
		<layer id="100" name="StatefulPartitionedCall/3d_unet_decathlon/transconvE/strided_slice_2" type="StridedSlice" version="opset1">
			<data begin_mask="0" end_mask="0" new_axis_mask="0" shrink_axis_mask="1" ellipsis_mask="0" />
			<input>
				<port id="0" precision="I32">
					<dim>5</dim>
				</port>
				<port id="1" precision="I64">
					<dim>1</dim>
				</port>
				<port id="2" precision="I64">
					<dim>1</dim>
				</port>
				<port id="3" precision="I64">
					<dim>1</dim>
				</port>
			</input>
			<output>
				<port id="4" precision="I32" names="StatefulPartitionedCall/3d_unet_decathlon/transconvE/strided_slice_2:0" />
			</output>
		</layer>
		<layer id="101" name="StatefulPartitionedCall/3d_unet_decathlon/transconvE/mul_1/y" type="Const" version="opset1">
			<data element_type="i32" shape="" offset="1898596" size="4" />
			<output>
				<port id="0" precision="I32" names="StatefulPartitionedCall/3d_unet_decathlon/transconvE/mul_1/y:0" />
			</output>
		</layer>
		<layer id="102" name="StatefulPartitionedCall/3d_unet_decathlon/transconvE/mul_1" type="Multiply" version="opset1">
			<data auto_broadcast="numpy" />
			<input>
				<port id="0" precision="I32" />
				<port id="1" precision="I32" />
			</input>
			<output>
				<port id="2" precision="I32" names="StatefulPartitionedCall/3d_unet_decathlon/transconvE/mul_1:0" />
			</output>
		</layer>
		<layer id="103" name="StatefulPartitionedCall/3d_unet_decathlon/transconvE/stack/Unsqueeze587_input_port_1/value" type="Const" version="opset1">
			<data element_type="i64" shape="1" offset="1898572" size="8" />
			<output>
				<port id="0" precision="I64">
					<dim>1</dim>
				</port>
			</output>
		</layer>
		<layer id="104" name="StatefulPartitionedCall/3d_unet_decathlon/transconvE/stack/Unsqueeze587" type="Unsqueeze" version="opset1">
			<input>
				<port id="0" precision="I32" />
				<port id="1" precision="I64">
					<dim>1</dim>
				</port>
			</input>
			<output>
				<port id="2" precision="I32">
					<dim>1</dim>
				</port>
			</output>
		</layer>
		<layer id="105" name="StatefulPartitionedCall/3d_unet_decathlon/transconvE/strided_slice_3/stack" type="Const" version="opset1">
			<data element_type="i64" shape="1" offset="1898600" size="8" />
			<output>
				<port id="0" precision="I64" names="StatefulPartitionedCall/3d_unet_decathlon/transconvE/strided_slice_3/stack:0">
					<dim>1</dim>
				</port>
			</output>
		</layer>
		<layer id="106" name="StatefulPartitionedCall/3d_unet_decathlon/transconvE/strided_slice_3/stack_1" type="Const" version="opset1">
			<data element_type="i64" shape="1" offset="1898608" size="8" />
			<output>
				<port id="0" precision="I64" names="StatefulPartitionedCall/3d_unet_decathlon/transconvE/strided_slice_3/stack_1:0">
					<dim>1</dim>
				</port>
			</output>
		</layer>
		<layer id="107" name="StatefulPartitionedCall/3d_unet_decathlon/transconvE/strided_slice_3/stack_2" type="Const" version="opset1">
			<data element_type="i64" shape="1" offset="1898580" size="8" />
			<output>
				<port id="0" precision="I64" names="StatefulPartitionedCall/3d_unet_decathlon/transconvE/strided_slice_3/stack_2:0">
					<dim>1</dim>
				</port>
			</output>
		</layer>
		<layer id="108" name="StatefulPartitionedCall/3d_unet_decathlon/transconvE/strided_slice_3" type="StridedSlice" version="opset1">
			<data begin_mask="0" end_mask="0" new_axis_mask="0" shrink_axis_mask="1" ellipsis_mask="0" />
			<input>
				<port id="0" precision="I32">
					<dim>5</dim>
				</port>
				<port id="1" precision="I64">
					<dim>1</dim>
				</port>
				<port id="2" precision="I64">
					<dim>1</dim>
				</port>
				<port id="3" precision="I64">
					<dim>1</dim>
				</port>
			</input>
			<output>
				<port id="4" precision="I32" names="StatefulPartitionedCall/3d_unet_decathlon/transconvE/strided_slice_3:0" />
			</output>
		</layer>
		<layer id="109" name="StatefulPartitionedCall/3d_unet_decathlon/transconvE/mul_2/y" type="Const" version="opset1">
			<data element_type="i32" shape="" offset="1898596" size="4" />
			<output>
				<port id="0" precision="I32" names="StatefulPartitionedCall/3d_unet_decathlon/transconvE/mul_2/y:0" />
			</output>
		</layer>
		<layer id="110" name="StatefulPartitionedCall/3d_unet_decathlon/transconvE/mul_2" type="Multiply" version="opset1">
			<data auto_broadcast="numpy" />
			<input>
				<port id="0" precision="I32" />
				<port id="1" precision="I32" />
			</input>
			<output>
				<port id="2" precision="I32" names="StatefulPartitionedCall/3d_unet_decathlon/transconvE/mul_2:0" />
			</output>
		</layer>
		<layer id="111" name="StatefulPartitionedCall/3d_unet_decathlon/transconvE/stack/Unsqueeze589_input_port_1/value" type="Const" version="opset1">
			<data element_type="i64" shape="1" offset="1898572" size="8" />
			<output>
				<port id="0" precision="I64">
					<dim>1</dim>
				</port>
			</output>
		</layer>
		<layer id="112" name="StatefulPartitionedCall/3d_unet_decathlon/transconvE/stack/Unsqueeze589" type="Unsqueeze" version="opset1">
			<input>
				<port id="0" precision="I32" />
				<port id="1" precision="I64">
					<dim>1</dim>
				</port>
			</input>
			<output>
				<port id="2" precision="I32">
					<dim>1</dim>
				</port>
			</output>
		</layer>
		<layer id="113" name="StatefulPartitionedCall/3d_unet_decathlon/transconvE/stack/Unsqueeze591" type="Const" version="opset1">
			<data element_type="i32" shape="1" offset="1898616" size="4" />
			<output>
				<port id="0" precision="I32">
					<dim>1</dim>
				</port>
			</output>
		</layer>
		<layer id="114" name="StatefulPartitionedCall/3d_unet_decathlon/transconvE/stack" type="Concat" version="opset1">
			<data axis="0" />
			<input>
				<port id="0" precision="I32">
					<dim>1</dim>
				</port>
				<port id="1" precision="I32">
					<dim>1</dim>
				</port>
				<port id="2" precision="I32">
					<dim>1</dim>
				</port>
				<port id="3" precision="I32">
					<dim>1</dim>
				</port>
				<port id="4" precision="I32">
					<dim>1</dim>
				</port>
			</input>
			<output>
				<port id="5" precision="I32">
					<dim>5</dim>
				</port>
			</output>
		</layer>
		<layer id="115" name="StatefulPartitionedCall/3d_unet_decathlon/transconvE/conv3d_transpose/GatherNHWCtoNCHW_input_port_1/value912013335" type="Const" version="opset1">
			<data element_type="i32" shape="5" offset="1898620" size="20" />
			<output>
				<port id="0" precision="I32">
					<dim>5</dim>
				</port>
			</output>
		</layer>
		<layer id="116" name="StatefulPartitionedCall/3d_unet_decathlon/transconvE/conv3d_transpose/GatherNHWCtoNCHW_input_port_2/value912213503" type="Const" version="opset1">
			<data element_type="i64" shape="" offset="1898572" size="8" />
			<output>
				<port id="0" precision="I64" />
			</output>
		</layer>
		<layer id="117" name="StatefulPartitionedCall/3d_unet_decathlon/transconvE/conv3d_transpose/GatherNHWCtoNCHW" type="Gather" version="opset8">
			<data batch_dims="0" />
			<input>
				<port id="0" precision="I32">
					<dim>5</dim>
				</port>
				<port id="1" precision="I32">
					<dim>5</dim>
				</port>
				<port id="2" precision="I64" />
			</input>
			<output>
				<port id="3" precision="I32">
					<dim>5</dim>
				</port>
			</output>
		</layer>
		<layer id="118" name="StatefulPartitionedCall/3d_unet_decathlon/transconvE/conv3d_transpose/ss_0_port_input_port_1/value1226413230" type="Const" version="opset1">
			<data element_type="i64" shape="1" offset="1898588" size="8" />
			<output>
				<port id="0" precision="I64">
					<dim>1</dim>
				</port>
			</output>
		</layer>
		<layer id="119" name="StatefulPartitionedCall/3d_unet_decathlon/transconvE/conv3d_transpose/ss_0_port_input_port_2/value1226613434" type="Const" version="opset1">
			<data element_type="i64" shape="1" offset="1898640" size="8" />
			<output>
				<port id="0" precision="I64">
					<dim>1</dim>
				</port>
			</output>
		</layer>
		<layer id="120" name="StatefulPartitionedCall/3d_unet_decathlon/transconvE/conv3d_transpose/ss_0_port_input_port_3/value1226813263" type="Const" version="opset1">
			<data element_type="i64" shape="1" offset="1898580" size="8" />
			<output>
				<port id="0" precision="I64">
					<dim>1</dim>
				</port>
			</output>
		</layer>
		<layer id="121" name="StatefulPartitionedCall/3d_unet_decathlon/transconvE/conv3d_transpose/ss_0_port" type="StridedSlice" version="opset1">
			<data begin_mask="0" end_mask="1" new_axis_mask="0" shrink_axis_mask="0" ellipsis_mask="0" />
			<input>
				<port id="0" precision="I32">
					<dim>5</dim>
				</port>
				<port id="1" precision="I64">
					<dim>1</dim>
				</port>
				<port id="2" precision="I64">
					<dim>1</dim>
				</port>
				<port id="3" precision="I64">
					<dim>1</dim>
				</port>
			</input>
			<output>
				<port id="4" precision="I32">
					<dim>3</dim>
				</port>
			</output>
		</layer>
		<layer id="122" name="StatefulPartitionedCall/3d_unet_decathlon/transconvE/conv3d_transpose/Cast_2" type="Convert" version="opset1">
			<data destination_type="i64" />
			<input>
				<port id="0" precision="I32">
					<dim>3</dim>
				</port>
			</input>
			<output>
				<port id="1" precision="I64">
					<dim>3</dim>
				</port>
			</output>
		</layer>
		<layer id="123" name="StatefulPartitionedCall/3d_unet_decathlon/transconvE/conv3d_transpose" type="ConvolutionBackpropData" version="opset1">
			<data strides="2, 2, 2" dilations="1, 1, 1" pads_begin="0, 0, 0" pads_end="0, 0, 0" auto_pad="same_lower" output_padding="0, 0, 0" />
			<input>
				<port id="0" precision="FP32">
					<dim>1</dim>
					<dim>128</dim>
					<dim>8</dim>
					<dim>8</dim>
					<dim>8</dim>
				</port>
				<port id="1" precision="FP32">
					<dim>128</dim>
					<dim>64</dim>
					<dim>2</dim>
					<dim>2</dim>
					<dim>2</dim>
				</port>
				<port id="2" precision="I64">
					<dim>3</dim>
				</port>
			</input>
			<output>
				<port id="3" precision="FP32" names="StatefulPartitionedCall/3d_unet_decathlon/transconvE/conv3d_transpose:0">
					<dim>1</dim>
					<dim>64</dim>
					<dim>16</dim>
					<dim>16</dim>
					<dim>16</dim>
				</port>
			</output>
		</layer>
		<layer id="124" name="StatefulPartitionedCall/3d_unet_decathlon/transconvE/BiasAdd/ReadVariableOp_compressed" type="Const" version="opset1">
			<data element_type="f16" shape="1, 64, 1, 1, 1" offset="1898648" size="128" />
			<output>
				<port id="0" precision="FP16">
					<dim>1</dim>
					<dim>64</dim>
					<dim>1</dim>
					<dim>1</dim>
					<dim>1</dim>
				</port>
			</output>
		</layer>
		<layer id="125" name="StatefulPartitionedCall/3d_unet_decathlon/transconvE/BiasAdd/ReadVariableOp" type="Convert" version="opset1">
			<data destination_type="f32" />
			<rt_info>
				<attribute name="decompression" version="0" />
			</rt_info>
			<input>
				<port id="0" precision="FP16">
					<dim>1</dim>
					<dim>64</dim>
					<dim>1</dim>
					<dim>1</dim>
					<dim>1</dim>
				</port>
			</input>
			<output>
				<port id="1" precision="FP32" names="StatefulPartitionedCall/3d_unet_decathlon/transconvE/BiasAdd/ReadVariableOp:0">
					<dim>1</dim>
					<dim>64</dim>
					<dim>1</dim>
					<dim>1</dim>
					<dim>1</dim>
				</port>
			</output>
		</layer>
		<layer id="126" name="StatefulPartitionedCall/3d_unet_decathlon/transconvE/BiasAdd/Add" type="Add" version="opset1">
			<data auto_broadcast="numpy" />
			<input>
				<port id="0" precision="FP32">
					<dim>1</dim>
					<dim>64</dim>
					<dim>16</dim>
					<dim>16</dim>
					<dim>16</dim>
				</port>
				<port id="1" precision="FP32">
					<dim>1</dim>
					<dim>64</dim>
					<dim>1</dim>
					<dim>1</dim>
					<dim>1</dim>
				</port>
			</input>
			<output>
				<port id="2" precision="FP32" names="StatefulPartitionedCall/3d_unet_decathlon/transconvE/BiasAdd:0">
					<dim>1</dim>
					<dim>64</dim>
					<dim>16</dim>
					<dim>16</dim>
					<dim>16</dim>
				</port>
			</output>
		</layer>
		<layer id="127" name="StatefulPartitionedCall/3d_unet_decathlon/concatD/concat" type="Concat" version="opset1">
			<data axis="1" />
			<input>
				<port id="0" precision="FP32">
					<dim>1</dim>
					<dim>64</dim>
					<dim>16</dim>
					<dim>16</dim>
					<dim>16</dim>
				</port>
				<port id="1" precision="FP32">
					<dim>1</dim>
					<dim>64</dim>
					<dim>16</dim>
					<dim>16</dim>
					<dim>16</dim>
				</port>
			</input>
			<output>
				<port id="2" precision="FP32" names="StatefulPartitionedCall/3d_unet_decathlon/concatD/concat:0">
					<dim>1</dim>
					<dim>128</dim>
					<dim>16</dim>
					<dim>16</dim>
					<dim>16</dim>
				</port>
			</output>
		</layer>
		<layer id="128" name="StatefulPartitionedCall/3d_unet_decathlon/decodeC_bn0/FusedBatchNormV3/mean/Fused_Mul__copy_compressed" type="Const" version="opset1">
			<data element_type="f16" shape="64, 128, 3, 3, 3" offset="1898776" size="442368" />
			<output>
				<port id="0" precision="FP16">
					<dim>64</dim>
					<dim>128</dim>
					<dim>3</dim>
					<dim>3</dim>
					<dim>3</dim>
				</port>
			</output>
		</layer>
		<layer id="129" name="StatefulPartitionedCall/3d_unet_decathlon/decodeC_bn0/FusedBatchNormV3/mean/Fused_Mul__copy" type="Convert" version="opset1">
			<data destination_type="f32" />
			<rt_info>
				<attribute name="decompression" version="0" />
			</rt_info>
			<input>
				<port id="0" precision="FP16">
					<dim>64</dim>
					<dim>128</dim>
					<dim>3</dim>
					<dim>3</dim>
					<dim>3</dim>
				</port>
			</input>
			<output>
				<port id="1" precision="FP32" names="StatefulPartitionedCall/3d_unet_decathlon/decodeC_conv0/Conv3D/ReadVariableOp:0">
					<dim>64</dim>
					<dim>128</dim>
					<dim>3</dim>
					<dim>3</dim>
					<dim>3</dim>
				</port>
			</output>
		</layer>
		<layer id="130" name="StatefulPartitionedCall/3d_unet_decathlon/decodeC_conv0/Conv3D" type="Convolution" version="opset1">
			<data strides="1, 1, 1" dilations="1, 1, 1" pads_begin="0, 0, 0" pads_end="0, 0, 0" auto_pad="same_upper" />
			<input>
				<port id="0" precision="FP32">
					<dim>1</dim>
					<dim>128</dim>
					<dim>16</dim>
					<dim>16</dim>
					<dim>16</dim>
				</port>
				<port id="1" precision="FP32">
					<dim>64</dim>
					<dim>128</dim>
					<dim>3</dim>
					<dim>3</dim>
					<dim>3</dim>
				</port>
			</input>
			<output>
				<port id="2" precision="FP32">
					<dim>1</dim>
					<dim>64</dim>
					<dim>16</dim>
					<dim>16</dim>
					<dim>16</dim>
				</port>
			</output>
		</layer>
		<layer id="131" name="data_add_70857090_compressed" type="Const" version="opset1">
			<data element_type="f16" shape="1, 64, 1, 1, 1" offset="2341144" size="128" />
			<output>
				<port id="0" precision="FP16">
					<dim>1</dim>
					<dim>64</dim>
					<dim>1</dim>
					<dim>1</dim>
					<dim>1</dim>
				</port>
			</output>
		</layer>
		<layer id="132" name="data_add_70857090" type="Convert" version="opset1">
			<data destination_type="f32" />
			<rt_info>
				<attribute name="decompression" version="0" />
			</rt_info>
			<input>
				<port id="0" precision="FP16">
					<dim>1</dim>
					<dim>64</dim>
					<dim>1</dim>
					<dim>1</dim>
					<dim>1</dim>
				</port>
			</input>
			<output>
				<port id="1" precision="FP32">
					<dim>1</dim>
					<dim>64</dim>
					<dim>1</dim>
					<dim>1</dim>
					<dim>1</dim>
				</port>
			</output>
		</layer>
		<layer id="133" name="StatefulPartitionedCall/3d_unet_decathlon/decodeC_conv0/BiasAdd/Add/Fused_Add_" type="Add" version="opset1">
			<data auto_broadcast="numpy" />
			<input>
				<port id="0" precision="FP32">
					<dim>1</dim>
					<dim>64</dim>
					<dim>16</dim>
					<dim>16</dim>
					<dim>16</dim>
				</port>
				<port id="1" precision="FP32">
					<dim>1</dim>
					<dim>64</dim>
					<dim>1</dim>
					<dim>1</dim>
					<dim>1</dim>
				</port>
			</input>
			<output>
				<port id="2" precision="FP32" names="StatefulPartitionedCall/3d_unet_decathlon/decodeC_bn0/FusedBatchNormV3:0">
					<dim>1</dim>
					<dim>64</dim>
					<dim>16</dim>
					<dim>16</dim>
					<dim>16</dim>
				</port>
			</output>
		</layer>
		<layer id="134" name="StatefulPartitionedCall/3d_unet_decathlon/decodeC_relu0/Relu" type="ReLU" version="opset1">
			<input>
				<port id="0" precision="FP32">
					<dim>1</dim>
					<dim>64</dim>
					<dim>16</dim>
					<dim>16</dim>
					<dim>16</dim>
				</port>
			</input>
			<output>
				<port id="1" precision="FP32" names="StatefulPartitionedCall/3d_unet_decathlon/decodeC_relu0/Relu:0">
					<dim>1</dim>
					<dim>64</dim>
					<dim>16</dim>
					<dim>16</dim>
					<dim>16</dim>
				</port>
			</output>
		</layer>
		<layer id="135" name="StatefulPartitionedCall/3d_unet_decathlon/decodeC_bn1/FusedBatchNormV3/mean/Fused_Mul__copy_compressed" type="Const" version="opset1">
			<data element_type="f16" shape="64, 64, 3, 3, 3" offset="2341272" size="221184" />
			<output>
				<port id="0" precision="FP16">
					<dim>64</dim>
					<dim>64</dim>
					<dim>3</dim>
					<dim>3</dim>
					<dim>3</dim>
				</port>
			</output>
		</layer>
		<layer id="136" name="StatefulPartitionedCall/3d_unet_decathlon/decodeC_bn1/FusedBatchNormV3/mean/Fused_Mul__copy" type="Convert" version="opset1">
			<data destination_type="f32" />
			<rt_info>
				<attribute name="decompression" version="0" />
			</rt_info>
			<input>
				<port id="0" precision="FP16">
					<dim>64</dim>
					<dim>64</dim>
					<dim>3</dim>
					<dim>3</dim>
					<dim>3</dim>
				</port>
			</input>
			<output>
				<port id="1" precision="FP32" names="StatefulPartitionedCall/3d_unet_decathlon/decodeC_conv1/Conv3D/ReadVariableOp:0">
					<dim>64</dim>
					<dim>64</dim>
					<dim>3</dim>
					<dim>3</dim>
					<dim>3</dim>
				</port>
			</output>
		</layer>
		<layer id="137" name="StatefulPartitionedCall/3d_unet_decathlon/decodeC_conv1/Conv3D" type="Convolution" version="opset1">
			<data strides="1, 1, 1" dilations="1, 1, 1" pads_begin="0, 0, 0" pads_end="0, 0, 0" auto_pad="same_upper" />
			<input>
				<port id="0" precision="FP32">
					<dim>1</dim>
					<dim>64</dim>
					<dim>16</dim>
					<dim>16</dim>
					<dim>16</dim>
				</port>
				<port id="1" precision="FP32">
					<dim>64</dim>
					<dim>64</dim>
					<dim>3</dim>
					<dim>3</dim>
					<dim>3</dim>
				</port>
			</input>
			<output>
				<port id="2" precision="FP32">
					<dim>1</dim>
					<dim>64</dim>
					<dim>16</dim>
					<dim>16</dim>
					<dim>16</dim>
				</port>
			</output>
		</layer>
		<layer id="138" name="data_add_70937098_compressed" type="Const" version="opset1">
			<data element_type="f16" shape="1, 64, 1, 1, 1" offset="2562456" size="128" />
			<output>
				<port id="0" precision="FP16">
					<dim>1</dim>
					<dim>64</dim>
					<dim>1</dim>
					<dim>1</dim>
					<dim>1</dim>
				</port>
			</output>
		</layer>
		<layer id="139" name="data_add_70937098" type="Convert" version="opset1">
			<data destination_type="f32" />
			<rt_info>
				<attribute name="decompression" version="0" />
			</rt_info>
			<input>
				<port id="0" precision="FP16">
					<dim>1</dim>
					<dim>64</dim>
					<dim>1</dim>
					<dim>1</dim>
					<dim>1</dim>
				</port>
			</input>
			<output>
				<port id="1" precision="FP32">
					<dim>1</dim>
					<dim>64</dim>
					<dim>1</dim>
					<dim>1</dim>
					<dim>1</dim>
				</port>
			</output>
		</layer>
		<layer id="140" name="StatefulPartitionedCall/3d_unet_decathlon/decodeC_conv1/BiasAdd/Add/Fused_Add_" type="Add" version="opset1">
			<data auto_broadcast="numpy" />
			<input>
				<port id="0" precision="FP32">
					<dim>1</dim>
					<dim>64</dim>
					<dim>16</dim>
					<dim>16</dim>
					<dim>16</dim>
				</port>
				<port id="1" precision="FP32">
					<dim>1</dim>
					<dim>64</dim>
					<dim>1</dim>
					<dim>1</dim>
					<dim>1</dim>
				</port>
			</input>
			<output>
				<port id="2" precision="FP32" names="StatefulPartitionedCall/3d_unet_decathlon/decodeC_bn1/FusedBatchNormV3:0">
					<dim>1</dim>
					<dim>64</dim>
					<dim>16</dim>
					<dim>16</dim>
					<dim>16</dim>
				</port>
			</output>
		</layer>
		<layer id="141" name="StatefulPartitionedCall/3d_unet_decathlon/decodeC/Relu" type="ReLU" version="opset1">
			<input>
				<port id="0" precision="FP32">
					<dim>1</dim>
					<dim>64</dim>
					<dim>16</dim>
					<dim>16</dim>
					<dim>16</dim>
				</port>
			</input>
			<output>
				<port id="1" precision="FP32" names="StatefulPartitionedCall/3d_unet_decathlon/decodeC/Relu:0">
					<dim>1</dim>
					<dim>64</dim>
					<dim>16</dim>
					<dim>16</dim>
					<dim>16</dim>
				</port>
			</output>
		</layer>
		<layer id="142" name="StatefulPartitionedCall/3d_unet_decathlon/transconvC/conv3d_transpose/ReadVariableOp_compressed" type="Const" version="opset1">
			<data element_type="f16" shape="64, 32, 2, 2, 2" offset="2562584" size="32768" />
			<output>
				<port id="0" precision="FP16">
					<dim>64</dim>
					<dim>32</dim>
					<dim>2</dim>
					<dim>2</dim>
					<dim>2</dim>
				</port>
			</output>
		</layer>
		<layer id="143" name="StatefulPartitionedCall/3d_unet_decathlon/transconvC/conv3d_transpose/ReadVariableOp" type="Convert" version="opset1">
			<data destination_type="f32" />
			<rt_info>
				<attribute name="decompression" version="0" />
			</rt_info>
			<input>
				<port id="0" precision="FP16">
					<dim>64</dim>
					<dim>32</dim>
					<dim>2</dim>
					<dim>2</dim>
					<dim>2</dim>
				</port>
			</input>
			<output>
				<port id="1" precision="FP32" names="StatefulPartitionedCall/3d_unet_decathlon/transconvC/conv3d_transpose/ReadVariableOp:0">
					<dim>64</dim>
					<dim>32</dim>
					<dim>2</dim>
					<dim>2</dim>
					<dim>2</dim>
				</port>
			</output>
		</layer>
		<layer id="144" name="StatefulPartitionedCall/3d_unet_decathlon/transconvC/Shape" type="ShapeOf" version="opset3">
			<data output_type="i32" />
			<input>
				<port id="0" precision="FP32">
					<dim>1</dim>
					<dim>64</dim>
					<dim>16</dim>
					<dim>16</dim>
					<dim>16</dim>
				</port>
			</input>
			<output>
				<port id="1" precision="I32">
					<dim>5</dim>
				</port>
			</output>
		</layer>
		<layer id="145" name="StatefulPartitionedCall/3d_unet_decathlon/transconvC/Shape/GatherNCHWtoNHWC_input_port_1/value908413452" type="Const" version="opset1">
			<data element_type="i32" shape="5" offset="1898552" size="20" />
			<output>
				<port id="0" precision="I32">
					<dim>5</dim>
				</port>
			</output>
		</layer>
		<layer id="146" name="StatefulPartitionedCall/3d_unet_decathlon/transconvC/Shape/GatherNCHWtoNHWC_input_port_2/value908613518" type="Const" version="opset1">
			<data element_type="i64" shape="" offset="1898572" size="8" />
			<output>
				<port id="0" precision="I64" />
			</output>
		</layer>
		<layer id="147" name="StatefulPartitionedCall/3d_unet_decathlon/transconvC/Shape/GatherNCHWtoNHWC" type="Gather" version="opset8">
			<data batch_dims="0" />
			<input>
				<port id="0" precision="I32">
					<dim>5</dim>
				</port>
				<port id="1" precision="I32">
					<dim>5</dim>
				</port>
				<port id="2" precision="I64" />
			</input>
			<output>
				<port id="3" precision="I32" names="StatefulPartitionedCall/3d_unet_decathlon/transconvC/Shape:0">
					<dim>5</dim>
				</port>
			</output>
		</layer>
		<layer id="148" name="StatefulPartitionedCall/3d_unet_decathlon/transconvC/strided_slice/stack" type="Const" version="opset1">
			<data element_type="i64" shape="1" offset="1898572" size="8" />
			<output>
				<port id="0" precision="I64" names="StatefulPartitionedCall/3d_unet_decathlon/transconvC/strided_slice/stack:0">
					<dim>1</dim>
				</port>
			</output>
		</layer>
		<layer id="149" name="StatefulPartitionedCall/3d_unet_decathlon/transconvC/strided_slice/stack_1" type="Const" version="opset1">
			<data element_type="i64" shape="1" offset="1898580" size="8" />
			<output>
				<port id="0" precision="I64" names="StatefulPartitionedCall/3d_unet_decathlon/transconvC/strided_slice/stack_1:0">
					<dim>1</dim>
				</port>
			</output>
		</layer>
		<layer id="150" name="StatefulPartitionedCall/3d_unet_decathlon/transconvC/strided_slice/stack_2" type="Const" version="opset1">
			<data element_type="i64" shape="1" offset="1898580" size="8" />
			<output>
				<port id="0" precision="I64" names="StatefulPartitionedCall/3d_unet_decathlon/transconvC/strided_slice/stack_2:0">
					<dim>1</dim>
				</port>
			</output>
		</layer>
		<layer id="151" name="StatefulPartitionedCall/3d_unet_decathlon/transconvC/strided_slice" type="StridedSlice" version="opset1">
			<data begin_mask="0" end_mask="0" new_axis_mask="0" shrink_axis_mask="1" ellipsis_mask="0" />
			<input>
				<port id="0" precision="I32">
					<dim>5</dim>
				</port>
				<port id="1" precision="I64">
					<dim>1</dim>
				</port>
				<port id="2" precision="I64">
					<dim>1</dim>
				</port>
				<port id="3" precision="I64">
					<dim>1</dim>
				</port>
			</input>
			<output>
				<port id="4" precision="I32" names="StatefulPartitionedCall/3d_unet_decathlon/transconvC/strided_slice:0" />
			</output>
		</layer>
		<layer id="152" name="StatefulPartitionedCall/3d_unet_decathlon/transconvC/stack/Unsqueeze_input_port_1/value" type="Const" version="opset1">
			<data element_type="i64" shape="1" offset="1898572" size="8" />
			<output>
				<port id="0" precision="I64">
					<dim>1</dim>
				</port>
			</output>
		</layer>
		<layer id="153" name="StatefulPartitionedCall/3d_unet_decathlon/transconvC/stack/Unsqueeze" type="Unsqueeze" version="opset1">
			<input>
				<port id="0" precision="I32" />
				<port id="1" precision="I64">
					<dim>1</dim>
				</port>
			</input>
			<output>
				<port id="2" precision="I32">
					<dim>1</dim>
				</port>
			</output>
		</layer>
		<layer id="154" name="StatefulPartitionedCall/3d_unet_decathlon/transconvC/strided_slice_1/stack" type="Const" version="opset1">
			<data element_type="i64" shape="1" offset="1898580" size="8" />
			<output>
				<port id="0" precision="I64" names="StatefulPartitionedCall/3d_unet_decathlon/transconvC/strided_slice_1/stack:0">
					<dim>1</dim>
				</port>
			</output>
		</layer>
		<layer id="155" name="StatefulPartitionedCall/3d_unet_decathlon/transconvC/strided_slice_1/stack_1" type="Const" version="opset1">
			<data element_type="i64" shape="1" offset="1898588" size="8" />
			<output>
				<port id="0" precision="I64" names="StatefulPartitionedCall/3d_unet_decathlon/transconvC/strided_slice_1/stack_1:0">
					<dim>1</dim>
				</port>
			</output>
		</layer>
		<layer id="156" name="StatefulPartitionedCall/3d_unet_decathlon/transconvC/strided_slice_1/stack_2" type="Const" version="opset1">
			<data element_type="i64" shape="1" offset="1898580" size="8" />
			<output>
				<port id="0" precision="I64" names="StatefulPartitionedCall/3d_unet_decathlon/transconvC/strided_slice_1/stack_2:0">
					<dim>1</dim>
				</port>
			</output>
		</layer>
		<layer id="157" name="StatefulPartitionedCall/3d_unet_decathlon/transconvC/strided_slice_1" type="StridedSlice" version="opset1">
			<data begin_mask="0" end_mask="0" new_axis_mask="0" shrink_axis_mask="1" ellipsis_mask="0" />
			<input>
				<port id="0" precision="I32">
					<dim>5</dim>
				</port>
				<port id="1" precision="I64">
					<dim>1</dim>
				</port>
				<port id="2" precision="I64">
					<dim>1</dim>
				</port>
				<port id="3" precision="I64">
					<dim>1</dim>
				</port>
			</input>
			<output>
				<port id="4" precision="I32" names="StatefulPartitionedCall/3d_unet_decathlon/transconvC/strided_slice_1:0" />
			</output>
		</layer>
		<layer id="158" name="StatefulPartitionedCall/3d_unet_decathlon/transconvC/mul/y" type="Const" version="opset1">
			<data element_type="i32" shape="" offset="1898596" size="4" />
			<output>
				<port id="0" precision="I32" names="StatefulPartitionedCall/3d_unet_decathlon/transconvC/mul/y:0" />
			</output>
		</layer>
		<layer id="159" name="StatefulPartitionedCall/3d_unet_decathlon/transconvC/mul" type="Multiply" version="opset1">
			<data auto_broadcast="numpy" />
			<input>
				<port id="0" precision="I32" />
				<port id="1" precision="I32" />
			</input>
			<output>
				<port id="2" precision="I32" names="StatefulPartitionedCall/3d_unet_decathlon/transconvC/mul:0" />
			</output>
		</layer>
		<layer id="160" name="StatefulPartitionedCall/3d_unet_decathlon/transconvC/stack/Unsqueeze563_input_port_1/value" type="Const" version="opset1">
			<data element_type="i64" shape="1" offset="1898572" size="8" />
			<output>
				<port id="0" precision="I64">
					<dim>1</dim>
				</port>
			</output>
		</layer>
		<layer id="161" name="StatefulPartitionedCall/3d_unet_decathlon/transconvC/stack/Unsqueeze563" type="Unsqueeze" version="opset1">
			<input>
				<port id="0" precision="I32" />
				<port id="1" precision="I64">
					<dim>1</dim>
				</port>
			</input>
			<output>
				<port id="2" precision="I32">
					<dim>1</dim>
				</port>
			</output>
		</layer>
		<layer id="162" name="StatefulPartitionedCall/3d_unet_decathlon/transconvC/strided_slice_2/stack" type="Const" version="opset1">
			<data element_type="i64" shape="1" offset="1898588" size="8" />
			<output>
				<port id="0" precision="I64" names="StatefulPartitionedCall/3d_unet_decathlon/transconvC/strided_slice_2/stack:0">
					<dim>1</dim>
				</port>
			</output>
		</layer>
		<layer id="163" name="StatefulPartitionedCall/3d_unet_decathlon/transconvC/strided_slice_2/stack_1" type="Const" version="opset1">
			<data element_type="i64" shape="1" offset="1898600" size="8" />
			<output>
				<port id="0" precision="I64" names="StatefulPartitionedCall/3d_unet_decathlon/transconvC/strided_slice_2/stack_1:0">
					<dim>1</dim>
				</port>
			</output>
		</layer>
		<layer id="164" name="StatefulPartitionedCall/3d_unet_decathlon/transconvC/strided_slice_2/stack_2" type="Const" version="opset1">
			<data element_type="i64" shape="1" offset="1898580" size="8" />
			<output>
				<port id="0" precision="I64" names="StatefulPartitionedCall/3d_unet_decathlon/transconvC/strided_slice_2/stack_2:0">
					<dim>1</dim>
				</port>
			</output>
		</layer>
		<layer id="165" name="StatefulPartitionedCall/3d_unet_decathlon/transconvC/strided_slice_2" type="StridedSlice" version="opset1">
			<data begin_mask="0" end_mask="0" new_axis_mask="0" shrink_axis_mask="1" ellipsis_mask="0" />
			<input>
				<port id="0" precision="I32">
					<dim>5</dim>
				</port>
				<port id="1" precision="I64">
					<dim>1</dim>
				</port>
				<port id="2" precision="I64">
					<dim>1</dim>
				</port>
				<port id="3" precision="I64">
					<dim>1</dim>
				</port>
			</input>
			<output>
				<port id="4" precision="I32" names="StatefulPartitionedCall/3d_unet_decathlon/transconvC/strided_slice_2:0" />
			</output>
		</layer>
		<layer id="166" name="StatefulPartitionedCall/3d_unet_decathlon/transconvC/mul_1/y" type="Const" version="opset1">
			<data element_type="i32" shape="" offset="1898596" size="4" />
			<output>
				<port id="0" precision="I32" names="StatefulPartitionedCall/3d_unet_decathlon/transconvC/mul_1/y:0" />
			</output>
		</layer>
		<layer id="167" name="StatefulPartitionedCall/3d_unet_decathlon/transconvC/mul_1" type="Multiply" version="opset1">
			<data auto_broadcast="numpy" />
			<input>
				<port id="0" precision="I32" />
				<port id="1" precision="I32" />
			</input>
			<output>
				<port id="2" precision="I32" names="StatefulPartitionedCall/3d_unet_decathlon/transconvC/mul_1:0" />
			</output>
		</layer>
		<layer id="168" name="StatefulPartitionedCall/3d_unet_decathlon/transconvC/stack/Unsqueeze565_input_port_1/value" type="Const" version="opset1">
			<data element_type="i64" shape="1" offset="1898572" size="8" />
			<output>
				<port id="0" precision="I64">
					<dim>1</dim>
				</port>
			</output>
		</layer>
		<layer id="169" name="StatefulPartitionedCall/3d_unet_decathlon/transconvC/stack/Unsqueeze565" type="Unsqueeze" version="opset1">
			<input>
				<port id="0" precision="I32" />
				<port id="1" precision="I64">
					<dim>1</dim>
				</port>
			</input>
			<output>
				<port id="2" precision="I32">
					<dim>1</dim>
				</port>
			</output>
		</layer>
		<layer id="170" name="StatefulPartitionedCall/3d_unet_decathlon/transconvC/strided_slice_3/stack" type="Const" version="opset1">
			<data element_type="i64" shape="1" offset="1898600" size="8" />
			<output>
				<port id="0" precision="I64" names="StatefulPartitionedCall/3d_unet_decathlon/transconvC/strided_slice_3/stack:0">
					<dim>1</dim>
				</port>
			</output>
		</layer>
		<layer id="171" name="StatefulPartitionedCall/3d_unet_decathlon/transconvC/strided_slice_3/stack_1" type="Const" version="opset1">
			<data element_type="i64" shape="1" offset="1898608" size="8" />
			<output>
				<port id="0" precision="I64" names="StatefulPartitionedCall/3d_unet_decathlon/transconvC/strided_slice_3/stack_1:0">
					<dim>1</dim>
				</port>
			</output>
		</layer>
		<layer id="172" name="StatefulPartitionedCall/3d_unet_decathlon/transconvC/strided_slice_3/stack_2" type="Const" version="opset1">
			<data element_type="i64" shape="1" offset="1898580" size="8" />
			<output>
				<port id="0" precision="I64" names="StatefulPartitionedCall/3d_unet_decathlon/transconvC/strided_slice_3/stack_2:0">
					<dim>1</dim>
				</port>
			</output>
		</layer>
		<layer id="173" name="StatefulPartitionedCall/3d_unet_decathlon/transconvC/strided_slice_3" type="StridedSlice" version="opset1">
			<data begin_mask="0" end_mask="0" new_axis_mask="0" shrink_axis_mask="1" ellipsis_mask="0" />
			<input>
				<port id="0" precision="I32">
					<dim>5</dim>
				</port>
				<port id="1" precision="I64">
					<dim>1</dim>
				</port>
				<port id="2" precision="I64">
					<dim>1</dim>
				</port>
				<port id="3" precision="I64">
					<dim>1</dim>
				</port>
			</input>
			<output>
				<port id="4" precision="I32" names="StatefulPartitionedCall/3d_unet_decathlon/transconvC/strided_slice_3:0" />
			</output>
		</layer>
		<layer id="174" name="StatefulPartitionedCall/3d_unet_decathlon/transconvC/mul_2/y" type="Const" version="opset1">
			<data element_type="i32" shape="" offset="1898596" size="4" />
			<output>
				<port id="0" precision="I32" names="StatefulPartitionedCall/3d_unet_decathlon/transconvC/mul_2/y:0" />
			</output>
		</layer>
		<layer id="175" name="StatefulPartitionedCall/3d_unet_decathlon/transconvC/mul_2" type="Multiply" version="opset1">
			<data auto_broadcast="numpy" />
			<input>
				<port id="0" precision="I32" />
				<port id="1" precision="I32" />
			</input>
			<output>
				<port id="2" precision="I32" names="StatefulPartitionedCall/3d_unet_decathlon/transconvC/mul_2:0" />
			</output>
		</layer>
		<layer id="176" name="StatefulPartitionedCall/3d_unet_decathlon/transconvC/stack/Unsqueeze567_input_port_1/value" type="Const" version="opset1">
			<data element_type="i64" shape="1" offset="1898572" size="8" />
			<output>
				<port id="0" precision="I64">
					<dim>1</dim>
				</port>
			</output>
		</layer>
		<layer id="177" name="StatefulPartitionedCall/3d_unet_decathlon/transconvC/stack/Unsqueeze567" type="Unsqueeze" version="opset1">
			<input>
				<port id="0" precision="I32" />
				<port id="1" precision="I64">
					<dim>1</dim>
				</port>
			</input>
			<output>
				<port id="2" precision="I32">
					<dim>1</dim>
				</port>
			</output>
		</layer>
		<layer id="178" name="StatefulPartitionedCall/3d_unet_decathlon/transconvC/stack/Unsqueeze569" type="Const" version="opset1">
			<data element_type="i32" shape="1" offset="2595352" size="4" />
			<output>
				<port id="0" precision="I32">
					<dim>1</dim>
				</port>
			</output>
		</layer>
		<layer id="179" name="StatefulPartitionedCall/3d_unet_decathlon/transconvC/stack" type="Concat" version="opset1">
			<data axis="0" />
			<input>
				<port id="0" precision="I32">
					<dim>1</dim>
				</port>
				<port id="1" precision="I32">
					<dim>1</dim>
				</port>
				<port id="2" precision="I32">
					<dim>1</dim>
				</port>
				<port id="3" precision="I32">
					<dim>1</dim>
				</port>
				<port id="4" precision="I32">
					<dim>1</dim>
				</port>
			</input>
			<output>
				<port id="5" precision="I32">
					<dim>5</dim>
				</port>
			</output>
		</layer>
		<layer id="180" name="StatefulPartitionedCall/3d_unet_decathlon/transconvC/conv3d_transpose/GatherNHWCtoNCHW_input_port_1/value910213443" type="Const" version="opset1">
			<data element_type="i32" shape="5" offset="1898620" size="20" />
			<output>
				<port id="0" precision="I32">
					<dim>5</dim>
				</port>
			</output>
		</layer>
		<layer id="181" name="StatefulPartitionedCall/3d_unet_decathlon/transconvC/conv3d_transpose/GatherNHWCtoNCHW_input_port_2/value910413380" type="Const" version="opset1">
			<data element_type="i64" shape="" offset="1898572" size="8" />
			<output>
				<port id="0" precision="I64" />
			</output>
		</layer>
		<layer id="182" name="StatefulPartitionedCall/3d_unet_decathlon/transconvC/conv3d_transpose/GatherNHWCtoNCHW" type="Gather" version="opset8">
			<data batch_dims="0" />
			<input>
				<port id="0" precision="I32">
					<dim>5</dim>
				</port>
				<port id="1" precision="I32">
					<dim>5</dim>
				</port>
				<port id="2" precision="I64" />
			</input>
			<output>
				<port id="3" precision="I32">
					<dim>5</dim>
				</port>
			</output>
		</layer>
		<layer id="183" name="StatefulPartitionedCall/3d_unet_decathlon/transconvC/conv3d_transpose/ss_0_port_input_port_1/value1227213569" type="Const" version="opset1">
			<data element_type="i64" shape="1" offset="1898588" size="8" />
			<output>
				<port id="0" precision="I64">
					<dim>1</dim>
				</port>
			</output>
		</layer>
		<layer id="184" name="StatefulPartitionedCall/3d_unet_decathlon/transconvC/conv3d_transpose/ss_0_port_input_port_2/value1227413464" type="Const" version="opset1">
			<data element_type="i64" shape="1" offset="1898640" size="8" />
			<output>
				<port id="0" precision="I64">
					<dim>1</dim>
				</port>
			</output>
		</layer>
		<layer id="185" name="StatefulPartitionedCall/3d_unet_decathlon/transconvC/conv3d_transpose/ss_0_port_input_port_3/value1227613530" type="Const" version="opset1">
			<data element_type="i64" shape="1" offset="1898580" size="8" />
			<output>
				<port id="0" precision="I64">
					<dim>1</dim>
				</port>
			</output>
		</layer>
		<layer id="186" name="StatefulPartitionedCall/3d_unet_decathlon/transconvC/conv3d_transpose/ss_0_port" type="StridedSlice" version="opset1">
			<data begin_mask="0" end_mask="1" new_axis_mask="0" shrink_axis_mask="0" ellipsis_mask="0" />
			<input>
				<port id="0" precision="I32">
					<dim>5</dim>
				</port>
				<port id="1" precision="I64">
					<dim>1</dim>
				</port>
				<port id="2" precision="I64">
					<dim>1</dim>
				</port>
				<port id="3" precision="I64">
					<dim>1</dim>
				</port>
			</input>
			<output>
				<port id="4" precision="I32">
					<dim>3</dim>
				</port>
			</output>
		</layer>
		<layer id="187" name="StatefulPartitionedCall/3d_unet_decathlon/transconvC/conv3d_transpose/Cast_2" type="Convert" version="opset1">
			<data destination_type="i64" />
			<input>
				<port id="0" precision="I32">
					<dim>3</dim>
				</port>
			</input>
			<output>
				<port id="1" precision="I64">
					<dim>3</dim>
				</port>
			</output>
		</layer>
		<layer id="188" name="StatefulPartitionedCall/3d_unet_decathlon/transconvC/conv3d_transpose" type="ConvolutionBackpropData" version="opset1">
			<data strides="2, 2, 2" dilations="1, 1, 1" pads_begin="0, 0, 0" pads_end="0, 0, 0" auto_pad="same_lower" output_padding="0, 0, 0" />
			<input>
				<port id="0" precision="FP32">
					<dim>1</dim>
					<dim>64</dim>
					<dim>16</dim>
					<dim>16</dim>
					<dim>16</dim>
				</port>
				<port id="1" precision="FP32">
					<dim>64</dim>
					<dim>32</dim>
					<dim>2</dim>
					<dim>2</dim>
					<dim>2</dim>
				</port>
				<port id="2" precision="I64">
					<dim>3</dim>
				</port>
			</input>
			<output>
				<port id="3" precision="FP32" names="StatefulPartitionedCall/3d_unet_decathlon/transconvC/conv3d_transpose:0">
					<dim>1</dim>
					<dim>32</dim>
					<dim>32</dim>
					<dim>32</dim>
					<dim>32</dim>
				</port>
			</output>
		</layer>
		<layer id="189" name="StatefulPartitionedCall/3d_unet_decathlon/transconvC/BiasAdd/ReadVariableOp_compressed" type="Const" version="opset1">
			<data element_type="f16" shape="1, 32, 1, 1, 1" offset="2595356" size="64" />
			<output>
				<port id="0" precision="FP16">
					<dim>1</dim>
					<dim>32</dim>
					<dim>1</dim>
					<dim>1</dim>
					<dim>1</dim>
				</port>
			</output>
		</layer>
		<layer id="190" name="StatefulPartitionedCall/3d_unet_decathlon/transconvC/BiasAdd/ReadVariableOp" type="Convert" version="opset1">
			<data destination_type="f32" />
			<rt_info>
				<attribute name="decompression" version="0" />
			</rt_info>
			<input>
				<port id="0" precision="FP16">
					<dim>1</dim>
					<dim>32</dim>
					<dim>1</dim>
					<dim>1</dim>
					<dim>1</dim>
				</port>
			</input>
			<output>
				<port id="1" precision="FP32" names="StatefulPartitionedCall/3d_unet_decathlon/transconvC/BiasAdd/ReadVariableOp:0">
					<dim>1</dim>
					<dim>32</dim>
					<dim>1</dim>
					<dim>1</dim>
					<dim>1</dim>
				</port>
			</output>
		</layer>
		<layer id="191" name="StatefulPartitionedCall/3d_unet_decathlon/transconvC/BiasAdd/Add" type="Add" version="opset1">
			<data auto_broadcast="numpy" />
			<input>
				<port id="0" precision="FP32">
					<dim>1</dim>
					<dim>32</dim>
					<dim>32</dim>
					<dim>32</dim>
					<dim>32</dim>
				</port>
				<port id="1" precision="FP32">
					<dim>1</dim>
					<dim>32</dim>
					<dim>1</dim>
					<dim>1</dim>
					<dim>1</dim>
				</port>
			</input>
			<output>
				<port id="2" precision="FP32" names="StatefulPartitionedCall/3d_unet_decathlon/transconvC/BiasAdd:0">
					<dim>1</dim>
					<dim>32</dim>
					<dim>32</dim>
					<dim>32</dim>
					<dim>32</dim>
				</port>
			</output>
		</layer>
		<layer id="192" name="StatefulPartitionedCall/3d_unet_decathlon/concatC/concat" type="Concat" version="opset1">
			<data axis="1" />
			<input>
				<port id="0" precision="FP32">
					<dim>1</dim>
					<dim>32</dim>
					<dim>32</dim>
					<dim>32</dim>
					<dim>32</dim>
				</port>
				<port id="1" precision="FP32">
					<dim>1</dim>
					<dim>32</dim>
					<dim>32</dim>
					<dim>32</dim>
					<dim>32</dim>
				</port>
			</input>
			<output>
				<port id="2" precision="FP32" names="StatefulPartitionedCall/3d_unet_decathlon/concatC/concat:0">
					<dim>1</dim>
					<dim>64</dim>
					<dim>32</dim>
					<dim>32</dim>
					<dim>32</dim>
				</port>
			</output>
		</layer>
		<layer id="193" name="StatefulPartitionedCall/3d_unet_decathlon/decodeB_bn0/FusedBatchNormV3/mean/Fused_Mul__copy_compressed" type="Const" version="opset1">
			<data element_type="f16" shape="32, 64, 3, 3, 3" offset="2595420" size="110592" />
			<output>
				<port id="0" precision="FP16">
					<dim>32</dim>
					<dim>64</dim>
					<dim>3</dim>
					<dim>3</dim>
					<dim>3</dim>
				</port>
			</output>
		</layer>
		<layer id="194" name="StatefulPartitionedCall/3d_unet_decathlon/decodeB_bn0/FusedBatchNormV3/mean/Fused_Mul__copy" type="Convert" version="opset1">
			<data destination_type="f32" />
			<rt_info>
				<attribute name="decompression" version="0" />
			</rt_info>
			<input>
				<port id="0" precision="FP16">
					<dim>32</dim>
					<dim>64</dim>
					<dim>3</dim>
					<dim>3</dim>
					<dim>3</dim>
				</port>
			</input>
			<output>
				<port id="1" precision="FP32" names="StatefulPartitionedCall/3d_unet_decathlon/decodeB_conv0/Conv3D/ReadVariableOp:0">
					<dim>32</dim>
					<dim>64</dim>
					<dim>3</dim>
					<dim>3</dim>
					<dim>3</dim>
				</port>
			</output>
		</layer>
		<layer id="195" name="StatefulPartitionedCall/3d_unet_decathlon/decodeB_conv0/Conv3D" type="Convolution" version="opset1">
			<data strides="1, 1, 1" dilations="1, 1, 1" pads_begin="0, 0, 0" pads_end="0, 0, 0" auto_pad="same_upper" />
			<input>
				<port id="0" precision="FP32">
					<dim>1</dim>
					<dim>64</dim>
					<dim>32</dim>
					<dim>32</dim>
					<dim>32</dim>
				</port>
				<port id="1" precision="FP32">
					<dim>32</dim>
					<dim>64</dim>
					<dim>3</dim>
					<dim>3</dim>
					<dim>3</dim>
				</port>
			</input>
			<output>
				<port id="2" precision="FP32">
					<dim>1</dim>
					<dim>32</dim>
					<dim>32</dim>
					<dim>32</dim>
					<dim>32</dim>
				</port>
			</output>
		</layer>
		<layer id="196" name="data_add_71017106_compressed" type="Const" version="opset1">
			<data element_type="f16" shape="1, 32, 1, 1, 1" offset="2706012" size="64" />
			<output>
				<port id="0" precision="FP16">
					<dim>1</dim>
					<dim>32</dim>
					<dim>1</dim>
					<dim>1</dim>
					<dim>1</dim>
				</port>
			</output>
		</layer>
		<layer id="197" name="data_add_71017106" type="Convert" version="opset1">
			<data destination_type="f32" />
			<rt_info>
				<attribute name="decompression" version="0" />
			</rt_info>
			<input>
				<port id="0" precision="FP16">
					<dim>1</dim>
					<dim>32</dim>
					<dim>1</dim>
					<dim>1</dim>
					<dim>1</dim>
				</port>
			</input>
			<output>
				<port id="1" precision="FP32">
					<dim>1</dim>
					<dim>32</dim>
					<dim>1</dim>
					<dim>1</dim>
					<dim>1</dim>
				</port>
			</output>
		</layer>
		<layer id="198" name="StatefulPartitionedCall/3d_unet_decathlon/decodeB_conv0/BiasAdd/Add/Fused_Add_" type="Add" version="opset1">
			<data auto_broadcast="numpy" />
			<input>
				<port id="0" precision="FP32">
					<dim>1</dim>
					<dim>32</dim>
					<dim>32</dim>
					<dim>32</dim>
					<dim>32</dim>
				</port>
				<port id="1" precision="FP32">
					<dim>1</dim>
					<dim>32</dim>
					<dim>1</dim>
					<dim>1</dim>
					<dim>1</dim>
				</port>
			</input>
			<output>
				<port id="2" precision="FP32" names="StatefulPartitionedCall/3d_unet_decathlon/decodeB_bn0/FusedBatchNormV3:0">
					<dim>1</dim>
					<dim>32</dim>
					<dim>32</dim>
					<dim>32</dim>
					<dim>32</dim>
				</port>
			</output>
		</layer>
		<layer id="199" name="StatefulPartitionedCall/3d_unet_decathlon/decodeB_relu0/Relu" type="ReLU" version="opset1">
			<input>
				<port id="0" precision="FP32">
					<dim>1</dim>
					<dim>32</dim>
					<dim>32</dim>
					<dim>32</dim>
					<dim>32</dim>
				</port>
			</input>
			<output>
				<port id="1" precision="FP32" names="StatefulPartitionedCall/3d_unet_decathlon/decodeB_relu0/Relu:0">
					<dim>1</dim>
					<dim>32</dim>
					<dim>32</dim>
					<dim>32</dim>
					<dim>32</dim>
				</port>
			</output>
		</layer>
		<layer id="200" name="StatefulPartitionedCall/3d_unet_decathlon/decodeB_bn1/FusedBatchNormV3/mean/Fused_Mul__copy_compressed" type="Const" version="opset1">
			<data element_type="f16" shape="32, 32, 3, 3, 3" offset="2706076" size="55296" />
			<output>
				<port id="0" precision="FP16">
					<dim>32</dim>
					<dim>32</dim>
					<dim>3</dim>
					<dim>3</dim>
					<dim>3</dim>
				</port>
			</output>
		</layer>
		<layer id="201" name="StatefulPartitionedCall/3d_unet_decathlon/decodeB_bn1/FusedBatchNormV3/mean/Fused_Mul__copy" type="Convert" version="opset1">
			<data destination_type="f32" />
			<rt_info>
				<attribute name="decompression" version="0" />
			</rt_info>
			<input>
				<port id="0" precision="FP16">
					<dim>32</dim>
					<dim>32</dim>
					<dim>3</dim>
					<dim>3</dim>
					<dim>3</dim>
				</port>
			</input>
			<output>
				<port id="1" precision="FP32" names="StatefulPartitionedCall/3d_unet_decathlon/decodeB_conv1/Conv3D/ReadVariableOp:0">
					<dim>32</dim>
					<dim>32</dim>
					<dim>3</dim>
					<dim>3</dim>
					<dim>3</dim>
				</port>
			</output>
		</layer>
		<layer id="202" name="StatefulPartitionedCall/3d_unet_decathlon/decodeB_conv1/Conv3D" type="Convolution" version="opset1">
			<data strides="1, 1, 1" dilations="1, 1, 1" pads_begin="0, 0, 0" pads_end="0, 0, 0" auto_pad="same_upper" />
			<input>
				<port id="0" precision="FP32">
					<dim>1</dim>
					<dim>32</dim>
					<dim>32</dim>
					<dim>32</dim>
					<dim>32</dim>
				</port>
				<port id="1" precision="FP32">
					<dim>32</dim>
					<dim>32</dim>
					<dim>3</dim>
					<dim>3</dim>
					<dim>3</dim>
				</port>
			</input>
			<output>
				<port id="2" precision="FP32">
					<dim>1</dim>
					<dim>32</dim>
					<dim>32</dim>
					<dim>32</dim>
					<dim>32</dim>
				</port>
			</output>
		</layer>
		<layer id="203" name="data_add_71097114_compressed" type="Const" version="opset1">
			<data element_type="f16" shape="1, 32, 1, 1, 1" offset="2761372" size="64" />
			<output>
				<port id="0" precision="FP16">
					<dim>1</dim>
					<dim>32</dim>
					<dim>1</dim>
					<dim>1</dim>
					<dim>1</dim>
				</port>
			</output>
		</layer>
		<layer id="204" name="data_add_71097114" type="Convert" version="opset1">
			<data destination_type="f32" />
			<rt_info>
				<attribute name="decompression" version="0" />
			</rt_info>
			<input>
				<port id="0" precision="FP16">
					<dim>1</dim>
					<dim>32</dim>
					<dim>1</dim>
					<dim>1</dim>
					<dim>1</dim>
				</port>
			</input>
			<output>
				<port id="1" precision="FP32">
					<dim>1</dim>
					<dim>32</dim>
					<dim>1</dim>
					<dim>1</dim>
					<dim>1</dim>
				</port>
			</output>
		</layer>
		<layer id="205" name="StatefulPartitionedCall/3d_unet_decathlon/decodeB_conv1/BiasAdd/Add/Fused_Add_" type="Add" version="opset1">
			<data auto_broadcast="numpy" />
			<input>
				<port id="0" precision="FP32">
					<dim>1</dim>
					<dim>32</dim>
					<dim>32</dim>
					<dim>32</dim>
					<dim>32</dim>
				</port>
				<port id="1" precision="FP32">
					<dim>1</dim>
					<dim>32</dim>
					<dim>1</dim>
					<dim>1</dim>
					<dim>1</dim>
				</port>
			</input>
			<output>
				<port id="2" precision="FP32" names="StatefulPartitionedCall/3d_unet_decathlon/decodeB_bn1/FusedBatchNormV3:0">
					<dim>1</dim>
					<dim>32</dim>
					<dim>32</dim>
					<dim>32</dim>
					<dim>32</dim>
				</port>
			</output>
		</layer>
		<layer id="206" name="StatefulPartitionedCall/3d_unet_decathlon/decodeB/Relu" type="ReLU" version="opset1">
			<input>
				<port id="0" precision="FP32">
					<dim>1</dim>
					<dim>32</dim>
					<dim>32</dim>
					<dim>32</dim>
					<dim>32</dim>
				</port>
			</input>
			<output>
				<port id="1" precision="FP32" names="StatefulPartitionedCall/3d_unet_decathlon/decodeB/Relu:0">
					<dim>1</dim>
					<dim>32</dim>
					<dim>32</dim>
					<dim>32</dim>
					<dim>32</dim>
				</port>
			</output>
		</layer>
		<layer id="207" name="StatefulPartitionedCall/3d_unet_decathlon/transconvB/conv3d_transpose/ReadVariableOp_compressed" type="Const" version="opset1">
			<data element_type="f16" shape="32, 16, 2, 2, 2" offset="2761436" size="8192" />
			<output>
				<port id="0" precision="FP16">
					<dim>32</dim>
					<dim>16</dim>
					<dim>2</dim>
					<dim>2</dim>
					<dim>2</dim>
				</port>
			</output>
		</layer>
		<layer id="208" name="StatefulPartitionedCall/3d_unet_decathlon/transconvB/conv3d_transpose/ReadVariableOp" type="Convert" version="opset1">
			<data destination_type="f32" />
			<rt_info>
				<attribute name="decompression" version="0" />
			</rt_info>
			<input>
				<port id="0" precision="FP16">
					<dim>32</dim>
					<dim>16</dim>
					<dim>2</dim>
					<dim>2</dim>
					<dim>2</dim>
				</port>
			</input>
			<output>
				<port id="1" precision="FP32" names="StatefulPartitionedCall/3d_unet_decathlon/transconvB/conv3d_transpose/ReadVariableOp:0">
					<dim>32</dim>
					<dim>16</dim>
					<dim>2</dim>
					<dim>2</dim>
					<dim>2</dim>
				</port>
			</output>
		</layer>
		<layer id="209" name="StatefulPartitionedCall/3d_unet_decathlon/transconvB/Shape" type="ShapeOf" version="opset3">
			<data output_type="i32" />
			<input>
				<port id="0" precision="FP32">
					<dim>1</dim>
					<dim>32</dim>
					<dim>32</dim>
					<dim>32</dim>
					<dim>32</dim>
				</port>
			</input>
			<output>
				<port id="1" precision="I32">
					<dim>5</dim>
				</port>
			</output>
		</layer>
		<layer id="210" name="StatefulPartitionedCall/3d_unet_decathlon/transconvB/Shape/GatherNCHWtoNHWC_input_port_1/value909013476" type="Const" version="opset1">
			<data element_type="i32" shape="5" offset="1898552" size="20" />
			<output>
				<port id="0" precision="I32">
					<dim>5</dim>
				</port>
			</output>
		</layer>
		<layer id="211" name="StatefulPartitionedCall/3d_unet_decathlon/transconvB/Shape/GatherNCHWtoNHWC_input_port_2/value909213626" type="Const" version="opset1">
			<data element_type="i64" shape="" offset="1898572" size="8" />
			<output>
				<port id="0" precision="I64" />
			</output>
		</layer>
		<layer id="212" name="StatefulPartitionedCall/3d_unet_decathlon/transconvB/Shape/GatherNCHWtoNHWC" type="Gather" version="opset8">
			<data batch_dims="0" />
			<input>
				<port id="0" precision="I32">
					<dim>5</dim>
				</port>
				<port id="1" precision="I32">
					<dim>5</dim>
				</port>
				<port id="2" precision="I64" />
			</input>
			<output>
				<port id="3" precision="I32" names="StatefulPartitionedCall/3d_unet_decathlon/transconvB/Shape:0">
					<dim>5</dim>
				</port>
			</output>
		</layer>
		<layer id="213" name="StatefulPartitionedCall/3d_unet_decathlon/transconvB/strided_slice/stack" type="Const" version="opset1">
			<data element_type="i64" shape="1" offset="1898572" size="8" />
			<output>
				<port id="0" precision="I64" names="StatefulPartitionedCall/3d_unet_decathlon/transconvB/strided_slice/stack:0">
					<dim>1</dim>
				</port>
			</output>
		</layer>
		<layer id="214" name="StatefulPartitionedCall/3d_unet_decathlon/transconvB/strided_slice/stack_1" type="Const" version="opset1">
			<data element_type="i64" shape="1" offset="1898580" size="8" />
			<output>
				<port id="0" precision="I64" names="StatefulPartitionedCall/3d_unet_decathlon/transconvB/strided_slice/stack_1:0">
					<dim>1</dim>
				</port>
			</output>
		</layer>
		<layer id="215" name="StatefulPartitionedCall/3d_unet_decathlon/transconvB/strided_slice/stack_2" type="Const" version="opset1">
			<data element_type="i64" shape="1" offset="1898580" size="8" />
			<output>
				<port id="0" precision="I64" names="StatefulPartitionedCall/3d_unet_decathlon/transconvB/strided_slice/stack_2:0">
					<dim>1</dim>
				</port>
			</output>
		</layer>
		<layer id="216" name="StatefulPartitionedCall/3d_unet_decathlon/transconvB/strided_slice" type="StridedSlice" version="opset1">
			<data begin_mask="0" end_mask="0" new_axis_mask="0" shrink_axis_mask="1" ellipsis_mask="0" />
			<input>
				<port id="0" precision="I32">
					<dim>5</dim>
				</port>
				<port id="1" precision="I64">
					<dim>1</dim>
				</port>
				<port id="2" precision="I64">
					<dim>1</dim>
				</port>
				<port id="3" precision="I64">
					<dim>1</dim>
				</port>
			</input>
			<output>
				<port id="4" precision="I32" names="StatefulPartitionedCall/3d_unet_decathlon/transconvB/strided_slice:0" />
			</output>
		</layer>
		<layer id="217" name="StatefulPartitionedCall/3d_unet_decathlon/transconvB/stack/Unsqueeze_input_port_1/value" type="Const" version="opset1">
			<data element_type="i64" shape="1" offset="1898572" size="8" />
			<output>
				<port id="0" precision="I64">
					<dim>1</dim>
				</port>
			</output>
		</layer>
		<layer id="218" name="StatefulPartitionedCall/3d_unet_decathlon/transconvB/stack/Unsqueeze" type="Unsqueeze" version="opset1">
			<input>
				<port id="0" precision="I32" />
				<port id="1" precision="I64">
					<dim>1</dim>
				</port>
			</input>
			<output>
				<port id="2" precision="I32">
					<dim>1</dim>
				</port>
			</output>
		</layer>
		<layer id="219" name="StatefulPartitionedCall/3d_unet_decathlon/transconvB/strided_slice_1/stack" type="Const" version="opset1">
			<data element_type="i64" shape="1" offset="1898580" size="8" />
			<output>
				<port id="0" precision="I64" names="StatefulPartitionedCall/3d_unet_decathlon/transconvB/strided_slice_1/stack:0">
					<dim>1</dim>
				</port>
			</output>
		</layer>
		<layer id="220" name="StatefulPartitionedCall/3d_unet_decathlon/transconvB/strided_slice_1/stack_1" type="Const" version="opset1">
			<data element_type="i64" shape="1" offset="1898588" size="8" />
			<output>
				<port id="0" precision="I64" names="StatefulPartitionedCall/3d_unet_decathlon/transconvB/strided_slice_1/stack_1:0">
					<dim>1</dim>
				</port>
			</output>
		</layer>
		<layer id="221" name="StatefulPartitionedCall/3d_unet_decathlon/transconvB/strided_slice_1/stack_2" type="Const" version="opset1">
			<data element_type="i64" shape="1" offset="1898580" size="8" />
			<output>
				<port id="0" precision="I64" names="StatefulPartitionedCall/3d_unet_decathlon/transconvB/strided_slice_1/stack_2:0">
					<dim>1</dim>
				</port>
			</output>
		</layer>
		<layer id="222" name="StatefulPartitionedCall/3d_unet_decathlon/transconvB/strided_slice_1" type="StridedSlice" version="opset1">
			<data begin_mask="0" end_mask="0" new_axis_mask="0" shrink_axis_mask="1" ellipsis_mask="0" />
			<input>
				<port id="0" precision="I32">
					<dim>5</dim>
				</port>
				<port id="1" precision="I64">
					<dim>1</dim>
				</port>
				<port id="2" precision="I64">
					<dim>1</dim>
				</port>
				<port id="3" precision="I64">
					<dim>1</dim>
				</port>
			</input>
			<output>
				<port id="4" precision="I32" names="StatefulPartitionedCall/3d_unet_decathlon/transconvB/strided_slice_1:0" />
			</output>
		</layer>
		<layer id="223" name="StatefulPartitionedCall/3d_unet_decathlon/transconvB/mul/y" type="Const" version="opset1">
			<data element_type="i32" shape="" offset="1898596" size="4" />
			<output>
				<port id="0" precision="I32" names="StatefulPartitionedCall/3d_unet_decathlon/transconvB/mul/y:0" />
			</output>
		</layer>
		<layer id="224" name="StatefulPartitionedCall/3d_unet_decathlon/transconvB/mul" type="Multiply" version="opset1">
			<data auto_broadcast="numpy" />
			<input>
				<port id="0" precision="I32" />
				<port id="1" precision="I32" />
			</input>
			<output>
				<port id="2" precision="I32" names="StatefulPartitionedCall/3d_unet_decathlon/transconvB/mul:0" />
			</output>
		</layer>
		<layer id="225" name="StatefulPartitionedCall/3d_unet_decathlon/transconvB/stack/Unsqueeze574_input_port_1/value" type="Const" version="opset1">
			<data element_type="i64" shape="1" offset="1898572" size="8" />
			<output>
				<port id="0" precision="I64">
					<dim>1</dim>
				</port>
			</output>
		</layer>
		<layer id="226" name="StatefulPartitionedCall/3d_unet_decathlon/transconvB/stack/Unsqueeze574" type="Unsqueeze" version="opset1">
			<input>
				<port id="0" precision="I32" />
				<port id="1" precision="I64">
					<dim>1</dim>
				</port>
			</input>
			<output>
				<port id="2" precision="I32">
					<dim>1</dim>
				</port>
			</output>
		</layer>
		<layer id="227" name="StatefulPartitionedCall/3d_unet_decathlon/transconvB/strided_slice_2/stack" type="Const" version="opset1">
			<data element_type="i64" shape="1" offset="1898588" size="8" />
			<output>
				<port id="0" precision="I64" names="StatefulPartitionedCall/3d_unet_decathlon/transconvB/strided_slice_2/stack:0">
					<dim>1</dim>
				</port>
			</output>
		</layer>
		<layer id="228" name="StatefulPartitionedCall/3d_unet_decathlon/transconvB/strided_slice_2/stack_1" type="Const" version="opset1">
			<data element_type="i64" shape="1" offset="1898600" size="8" />
			<output>
				<port id="0" precision="I64" names="StatefulPartitionedCall/3d_unet_decathlon/transconvB/strided_slice_2/stack_1:0">
					<dim>1</dim>
				</port>
			</output>
		</layer>
		<layer id="229" name="StatefulPartitionedCall/3d_unet_decathlon/transconvB/strided_slice_2/stack_2" type="Const" version="opset1">
			<data element_type="i64" shape="1" offset="1898580" size="8" />
			<output>
				<port id="0" precision="I64" names="StatefulPartitionedCall/3d_unet_decathlon/transconvB/strided_slice_2/stack_2:0">
					<dim>1</dim>
				</port>
			</output>
		</layer>
		<layer id="230" name="StatefulPartitionedCall/3d_unet_decathlon/transconvB/strided_slice_2" type="StridedSlice" version="opset1">
			<data begin_mask="0" end_mask="0" new_axis_mask="0" shrink_axis_mask="1" ellipsis_mask="0" />
			<input>
				<port id="0" precision="I32">
					<dim>5</dim>
				</port>
				<port id="1" precision="I64">
					<dim>1</dim>
				</port>
				<port id="2" precision="I64">
					<dim>1</dim>
				</port>
				<port id="3" precision="I64">
					<dim>1</dim>
				</port>
			</input>
			<output>
				<port id="4" precision="I32" names="StatefulPartitionedCall/3d_unet_decathlon/transconvB/strided_slice_2:0" />
			</output>
		</layer>
		<layer id="231" name="StatefulPartitionedCall/3d_unet_decathlon/transconvB/mul_1/y" type="Const" version="opset1">
			<data element_type="i32" shape="" offset="1898596" size="4" />
			<output>
				<port id="0" precision="I32" names="StatefulPartitionedCall/3d_unet_decathlon/transconvB/mul_1/y:0" />
			</output>
		</layer>
		<layer id="232" name="StatefulPartitionedCall/3d_unet_decathlon/transconvB/mul_1" type="Multiply" version="opset1">
			<data auto_broadcast="numpy" />
			<input>
				<port id="0" precision="I32" />
				<port id="1" precision="I32" />
			</input>
			<output>
				<port id="2" precision="I32" names="StatefulPartitionedCall/3d_unet_decathlon/transconvB/mul_1:0" />
			</output>
		</layer>
		<layer id="233" name="StatefulPartitionedCall/3d_unet_decathlon/transconvB/stack/Unsqueeze576_input_port_1/value" type="Const" version="opset1">
			<data element_type="i64" shape="1" offset="1898572" size="8" />
			<output>
				<port id="0" precision="I64">
					<dim>1</dim>
				</port>
			</output>
		</layer>
		<layer id="234" name="StatefulPartitionedCall/3d_unet_decathlon/transconvB/stack/Unsqueeze576" type="Unsqueeze" version="opset1">
			<input>
				<port id="0" precision="I32" />
				<port id="1" precision="I64">
					<dim>1</dim>
				</port>
			</input>
			<output>
				<port id="2" precision="I32">
					<dim>1</dim>
				</port>
			</output>
		</layer>
		<layer id="235" name="StatefulPartitionedCall/3d_unet_decathlon/transconvB/strided_slice_3/stack" type="Const" version="opset1">
			<data element_type="i64" shape="1" offset="1898600" size="8" />
			<output>
				<port id="0" precision="I64" names="StatefulPartitionedCall/3d_unet_decathlon/transconvB/strided_slice_3/stack:0">
					<dim>1</dim>
				</port>
			</output>
		</layer>
		<layer id="236" name="StatefulPartitionedCall/3d_unet_decathlon/transconvB/strided_slice_3/stack_1" type="Const" version="opset1">
			<data element_type="i64" shape="1" offset="1898608" size="8" />
			<output>
				<port id="0" precision="I64" names="StatefulPartitionedCall/3d_unet_decathlon/transconvB/strided_slice_3/stack_1:0">
					<dim>1</dim>
				</port>
			</output>
		</layer>
		<layer id="237" name="StatefulPartitionedCall/3d_unet_decathlon/transconvB/strided_slice_3/stack_2" type="Const" version="opset1">
			<data element_type="i64" shape="1" offset="1898580" size="8" />
			<output>
				<port id="0" precision="I64" names="StatefulPartitionedCall/3d_unet_decathlon/transconvB/strided_slice_3/stack_2:0">
					<dim>1</dim>
				</port>
			</output>
		</layer>
		<layer id="238" name="StatefulPartitionedCall/3d_unet_decathlon/transconvB/strided_slice_3" type="StridedSlice" version="opset1">
			<data begin_mask="0" end_mask="0" new_axis_mask="0" shrink_axis_mask="1" ellipsis_mask="0" />
			<input>
				<port id="0" precision="I32">
					<dim>5</dim>
				</port>
				<port id="1" precision="I64">
					<dim>1</dim>
				</port>
				<port id="2" precision="I64">
					<dim>1</dim>
				</port>
				<port id="3" precision="I64">
					<dim>1</dim>
				</port>
			</input>
			<output>
				<port id="4" precision="I32" names="StatefulPartitionedCall/3d_unet_decathlon/transconvB/strided_slice_3:0" />
			</output>
		</layer>
		<layer id="239" name="StatefulPartitionedCall/3d_unet_decathlon/transconvB/mul_2/y" type="Const" version="opset1">
			<data element_type="i32" shape="" offset="1898596" size="4" />
			<output>
				<port id="0" precision="I32" names="StatefulPartitionedCall/3d_unet_decathlon/transconvB/mul_2/y:0" />
			</output>
		</layer>
		<layer id="240" name="StatefulPartitionedCall/3d_unet_decathlon/transconvB/mul_2" type="Multiply" version="opset1">
			<data auto_broadcast="numpy" />
			<input>
				<port id="0" precision="I32" />
				<port id="1" precision="I32" />
			</input>
			<output>
				<port id="2" precision="I32" names="StatefulPartitionedCall/3d_unet_decathlon/transconvB/mul_2:0" />
			</output>
		</layer>
		<layer id="241" name="StatefulPartitionedCall/3d_unet_decathlon/transconvB/stack/Unsqueeze578_input_port_1/value" type="Const" version="opset1">
			<data element_type="i64" shape="1" offset="1898572" size="8" />
			<output>
				<port id="0" precision="I64">
					<dim>1</dim>
				</port>
			</output>
		</layer>
		<layer id="242" name="StatefulPartitionedCall/3d_unet_decathlon/transconvB/stack/Unsqueeze578" type="Unsqueeze" version="opset1">
			<input>
				<port id="0" precision="I32" />
				<port id="1" precision="I64">
					<dim>1</dim>
				</port>
			</input>
			<output>
				<port id="2" precision="I32">
					<dim>1</dim>
				</port>
			</output>
		</layer>
		<layer id="243" name="StatefulPartitionedCall/3d_unet_decathlon/transconvB/stack/Unsqueeze580" type="Const" version="opset1">
			<data element_type="i32" shape="1" offset="2769628" size="4" />
			<output>
				<port id="0" precision="I32">
					<dim>1</dim>
				</port>
			</output>
		</layer>
		<layer id="244" name="StatefulPartitionedCall/3d_unet_decathlon/transconvB/stack" type="Concat" version="opset1">
			<data axis="0" />
			<input>
				<port id="0" precision="I32">
					<dim>1</dim>
				</port>
				<port id="1" precision="I32">
					<dim>1</dim>
				</port>
				<port id="2" precision="I32">
					<dim>1</dim>
				</port>
				<port id="3" precision="I32">
					<dim>1</dim>
				</port>
				<port id="4" precision="I32">
					<dim>1</dim>
				</port>
			</input>
			<output>
				<port id="5" precision="I32">
					<dim>5</dim>
				</port>
			</output>
		</layer>
		<layer id="245" name="StatefulPartitionedCall/3d_unet_decathlon/transconvB/conv3d_transpose/GatherNHWCtoNCHW_input_port_1/value910813473" type="Const" version="opset1">
			<data element_type="i32" shape="5" offset="1898620" size="20" />
			<output>
				<port id="0" precision="I32">
					<dim>5</dim>
				</port>
			</output>
		</layer>
		<layer id="246" name="StatefulPartitionedCall/3d_unet_decathlon/transconvB/conv3d_transpose/GatherNHWCtoNCHW_input_port_2/value911013416" type="Const" version="opset1">
			<data element_type="i64" shape="" offset="1898572" size="8" />
			<output>
				<port id="0" precision="I64" />
			</output>
		</layer>
		<layer id="247" name="StatefulPartitionedCall/3d_unet_decathlon/transconvB/conv3d_transpose/GatherNHWCtoNCHW" type="Gather" version="opset8">
			<data batch_dims="0" />
			<input>
				<port id="0" precision="I32">
					<dim>5</dim>
				</port>
				<port id="1" precision="I32">
					<dim>5</dim>
				</port>
				<port id="2" precision="I64" />
			</input>
			<output>
				<port id="3" precision="I32">
					<dim>5</dim>
				</port>
			</output>
		</layer>
		<layer id="248" name="StatefulPartitionedCall/3d_unet_decathlon/transconvB/conv3d_transpose/ss_0_port_input_port_1/value1228013542" type="Const" version="opset1">
			<data element_type="i64" shape="1" offset="1898588" size="8" />
			<output>
				<port id="0" precision="I64">
					<dim>1</dim>
				</port>
			</output>
		</layer>
		<layer id="249" name="StatefulPartitionedCall/3d_unet_decathlon/transconvB/conv3d_transpose/ss_0_port_input_port_2/value1228213557" type="Const" version="opset1">
			<data element_type="i64" shape="1" offset="1898640" size="8" />
			<output>
				<port id="0" precision="I64">
					<dim>1</dim>
				</port>
			</output>
		</layer>
		<layer id="250" name="StatefulPartitionedCall/3d_unet_decathlon/transconvB/conv3d_transpose/ss_0_port_input_port_3/value1228413536" type="Const" version="opset1">
			<data element_type="i64" shape="1" offset="1898580" size="8" />
			<output>
				<port id="0" precision="I64">
					<dim>1</dim>
				</port>
			</output>
		</layer>
		<layer id="251" name="StatefulPartitionedCall/3d_unet_decathlon/transconvB/conv3d_transpose/ss_0_port" type="StridedSlice" version="opset1">
			<data begin_mask="0" end_mask="1" new_axis_mask="0" shrink_axis_mask="0" ellipsis_mask="0" />
			<input>
				<port id="0" precision="I32">
					<dim>5</dim>
				</port>
				<port id="1" precision="I64">
					<dim>1</dim>
				</port>
				<port id="2" precision="I64">
					<dim>1</dim>
				</port>
				<port id="3" precision="I64">
					<dim>1</dim>
				</port>
			</input>
			<output>
				<port id="4" precision="I32">
					<dim>3</dim>
				</port>
			</output>
		</layer>
		<layer id="252" name="StatefulPartitionedCall/3d_unet_decathlon/transconvB/conv3d_transpose/Cast_2" type="Convert" version="opset1">
			<data destination_type="i64" />
			<input>
				<port id="0" precision="I32">
					<dim>3</dim>
				</port>
			</input>
			<output>
				<port id="1" precision="I64">
					<dim>3</dim>
				</port>
			</output>
		</layer>
		<layer id="253" name="StatefulPartitionedCall/3d_unet_decathlon/transconvB/conv3d_transpose" type="ConvolutionBackpropData" version="opset1">
			<data strides="2, 2, 2" dilations="1, 1, 1" pads_begin="0, 0, 0" pads_end="0, 0, 0" auto_pad="same_lower" output_padding="0, 0, 0" />
			<input>
				<port id="0" precision="FP32">
					<dim>1</dim>
					<dim>32</dim>
					<dim>32</dim>
					<dim>32</dim>
					<dim>32</dim>
				</port>
				<port id="1" precision="FP32">
					<dim>32</dim>
					<dim>16</dim>
					<dim>2</dim>
					<dim>2</dim>
					<dim>2</dim>
				</port>
				<port id="2" precision="I64">
					<dim>3</dim>
				</port>
			</input>
			<output>
				<port id="3" precision="FP32" names="StatefulPartitionedCall/3d_unet_decathlon/transconvB/conv3d_transpose:0">
					<dim>1</dim>
					<dim>16</dim>
					<dim>64</dim>
					<dim>64</dim>
					<dim>64</dim>
				</port>
			</output>
		</layer>
		<layer id="254" name="StatefulPartitionedCall/3d_unet_decathlon/transconvB/BiasAdd/ReadVariableOp_compressed" type="Const" version="opset1">
			<data element_type="f16" shape="1, 16, 1, 1, 1" offset="2769632" size="32" />
			<output>
				<port id="0" precision="FP16">
					<dim>1</dim>
					<dim>16</dim>
					<dim>1</dim>
					<dim>1</dim>
					<dim>1</dim>
				</port>
			</output>
		</layer>
		<layer id="255" name="StatefulPartitionedCall/3d_unet_decathlon/transconvB/BiasAdd/ReadVariableOp" type="Convert" version="opset1">
			<data destination_type="f32" />
			<rt_info>
				<attribute name="decompression" version="0" />
			</rt_info>
			<input>
				<port id="0" precision="FP16">
					<dim>1</dim>
					<dim>16</dim>
					<dim>1</dim>
					<dim>1</dim>
					<dim>1</dim>
				</port>
			</input>
			<output>
				<port id="1" precision="FP32" names="StatefulPartitionedCall/3d_unet_decathlon/transconvB/BiasAdd/ReadVariableOp:0">
					<dim>1</dim>
					<dim>16</dim>
					<dim>1</dim>
					<dim>1</dim>
					<dim>1</dim>
				</port>
			</output>
		</layer>
		<layer id="256" name="StatefulPartitionedCall/3d_unet_decathlon/transconvB/BiasAdd/Add" type="Add" version="opset1">
			<data auto_broadcast="numpy" />
			<input>
				<port id="0" precision="FP32">
					<dim>1</dim>
					<dim>16</dim>
					<dim>64</dim>
					<dim>64</dim>
					<dim>64</dim>
				</port>
				<port id="1" precision="FP32">
					<dim>1</dim>
					<dim>16</dim>
					<dim>1</dim>
					<dim>1</dim>
					<dim>1</dim>
				</port>
			</input>
			<output>
				<port id="2" precision="FP32" names="StatefulPartitionedCall/3d_unet_decathlon/transconvB/BiasAdd:0">
					<dim>1</dim>
					<dim>16</dim>
					<dim>64</dim>
					<dim>64</dim>
					<dim>64</dim>
				</port>
			</output>
		</layer>
		<layer id="257" name="StatefulPartitionedCall/3d_unet_decathlon/concatB/concat" type="Concat" version="opset1">
			<data axis="1" />
			<input>
				<port id="0" precision="FP32">
					<dim>1</dim>
					<dim>16</dim>
					<dim>64</dim>
					<dim>64</dim>
					<dim>64</dim>
				</port>
				<port id="1" precision="FP32">
					<dim>1</dim>
					<dim>16</dim>
					<dim>64</dim>
					<dim>64</dim>
					<dim>64</dim>
				</port>
			</input>
			<output>
				<port id="2" precision="FP32" names="StatefulPartitionedCall/3d_unet_decathlon/concatB/concat:0">
					<dim>1</dim>
					<dim>32</dim>
					<dim>64</dim>
					<dim>64</dim>
					<dim>64</dim>
				</port>
			</output>
		</layer>
		<layer id="258" name="StatefulPartitionedCall/3d_unet_decathlon/decodeA_bn0/FusedBatchNormV3/mean/Fused_Mul__copy_compressed" type="Const" version="opset1">
			<data element_type="f16" shape="16, 32, 3, 3, 3" offset="2769664" size="27648" />
			<output>
				<port id="0" precision="FP16">
					<dim>16</dim>
					<dim>32</dim>
					<dim>3</dim>
					<dim>3</dim>
					<dim>3</dim>
				</port>
			</output>
		</layer>
		<layer id="259" name="StatefulPartitionedCall/3d_unet_decathlon/decodeA_bn0/FusedBatchNormV3/mean/Fused_Mul__copy" type="Convert" version="opset1">
			<data destination_type="f32" />
			<rt_info>
				<attribute name="decompression" version="0" />
			</rt_info>
			<input>
				<port id="0" precision="FP16">
					<dim>16</dim>
					<dim>32</dim>
					<dim>3</dim>
					<dim>3</dim>
					<dim>3</dim>
				</port>
			</input>
			<output>
				<port id="1" precision="FP32" names="StatefulPartitionedCall/3d_unet_decathlon/decodeA_conv0/Conv3D/ReadVariableOp:0">
					<dim>16</dim>
					<dim>32</dim>
					<dim>3</dim>
					<dim>3</dim>
					<dim>3</dim>
				</port>
			</output>
		</layer>
		<layer id="260" name="StatefulPartitionedCall/3d_unet_decathlon/decodeA_conv0/Conv3D" type="Convolution" version="opset1">
			<data strides="1, 1, 1" dilations="1, 1, 1" pads_begin="0, 0, 0" pads_end="0, 0, 0" auto_pad="same_upper" />
			<input>
				<port id="0" precision="FP32">
					<dim>1</dim>
					<dim>32</dim>
					<dim>64</dim>
					<dim>64</dim>
					<dim>64</dim>
				</port>
				<port id="1" precision="FP32">
					<dim>16</dim>
					<dim>32</dim>
					<dim>3</dim>
					<dim>3</dim>
					<dim>3</dim>
				</port>
			</input>
			<output>
				<port id="2" precision="FP32">
					<dim>1</dim>
					<dim>16</dim>
					<dim>64</dim>
					<dim>64</dim>
					<dim>64</dim>
				</port>
			</output>
		</layer>
		<layer id="261" name="data_add_71177122_compressed" type="Const" version="opset1">
			<data element_type="f16" shape="1, 16, 1, 1, 1" offset="2797312" size="32" />
			<output>
				<port id="0" precision="FP16">
					<dim>1</dim>
					<dim>16</dim>
					<dim>1</dim>
					<dim>1</dim>
					<dim>1</dim>
				</port>
			</output>
		</layer>
		<layer id="262" name="data_add_71177122" type="Convert" version="opset1">
			<data destination_type="f32" />
			<rt_info>
				<attribute name="decompression" version="0" />
			</rt_info>
			<input>
				<port id="0" precision="FP16">
					<dim>1</dim>
					<dim>16</dim>
					<dim>1</dim>
					<dim>1</dim>
					<dim>1</dim>
				</port>
			</input>
			<output>
				<port id="1" precision="FP32">
					<dim>1</dim>
					<dim>16</dim>
					<dim>1</dim>
					<dim>1</dim>
					<dim>1</dim>
				</port>
			</output>
		</layer>
		<layer id="263" name="StatefulPartitionedCall/3d_unet_decathlon/decodeA_conv0/BiasAdd/Add/Fused_Add_" type="Add" version="opset1">
			<data auto_broadcast="numpy" />
			<input>
				<port id="0" precision="FP32">
					<dim>1</dim>
					<dim>16</dim>
					<dim>64</dim>
					<dim>64</dim>
					<dim>64</dim>
				</port>
				<port id="1" precision="FP32">
					<dim>1</dim>
					<dim>16</dim>
					<dim>1</dim>
					<dim>1</dim>
					<dim>1</dim>
				</port>
			</input>
			<output>
				<port id="2" precision="FP32" names="StatefulPartitionedCall/3d_unet_decathlon/decodeA_bn0/FusedBatchNormV3:0">
					<dim>1</dim>
					<dim>16</dim>
					<dim>64</dim>
					<dim>64</dim>
					<dim>64</dim>
				</port>
			</output>
		</layer>
		<layer id="264" name="StatefulPartitionedCall/3d_unet_decathlon/decodeA_relu0/Relu" type="ReLU" version="opset1">
			<input>
				<port id="0" precision="FP32">
					<dim>1</dim>
					<dim>16</dim>
					<dim>64</dim>
					<dim>64</dim>
					<dim>64</dim>
				</port>
			</input>
			<output>
				<port id="1" precision="FP32" names="StatefulPartitionedCall/3d_unet_decathlon/decodeA_relu0/Relu:0">
					<dim>1</dim>
					<dim>16</dim>
					<dim>64</dim>
					<dim>64</dim>
					<dim>64</dim>
				</port>
			</output>
		</layer>
		<layer id="265" name="StatefulPartitionedCall/3d_unet_decathlon/decodeA_bn1/FusedBatchNormV3/mean/Fused_Mul__copy_compressed" type="Const" version="opset1">
			<data element_type="f16" shape="16, 16, 3, 3, 3" offset="2797344" size="13824" />
			<output>
				<port id="0" precision="FP16">
					<dim>16</dim>
					<dim>16</dim>
					<dim>3</dim>
					<dim>3</dim>
					<dim>3</dim>
				</port>
			</output>
		</layer>
		<layer id="266" name="StatefulPartitionedCall/3d_unet_decathlon/decodeA_bn1/FusedBatchNormV3/mean/Fused_Mul__copy" type="Convert" version="opset1">
			<data destination_type="f32" />
			<rt_info>
				<attribute name="decompression" version="0" />
			</rt_info>
			<input>
				<port id="0" precision="FP16">
					<dim>16</dim>
					<dim>16</dim>
					<dim>3</dim>
					<dim>3</dim>
					<dim>3</dim>
				</port>
			</input>
			<output>
				<port id="1" precision="FP32" names="StatefulPartitionedCall/3d_unet_decathlon/decodeA_conv1/Conv3D/ReadVariableOp:0">
					<dim>16</dim>
					<dim>16</dim>
					<dim>3</dim>
					<dim>3</dim>
					<dim>3</dim>
				</port>
			</output>
		</layer>
		<layer id="267" name="StatefulPartitionedCall/3d_unet_decathlon/decodeA_conv1/Conv3D" type="Convolution" version="opset1">
			<data strides="1, 1, 1" dilations="1, 1, 1" pads_begin="0, 0, 0" pads_end="0, 0, 0" auto_pad="same_upper" />
			<input>
				<port id="0" precision="FP32">
					<dim>1</dim>
					<dim>16</dim>
					<dim>64</dim>
					<dim>64</dim>
					<dim>64</dim>
				</port>
				<port id="1" precision="FP32">
					<dim>16</dim>
					<dim>16</dim>
					<dim>3</dim>
					<dim>3</dim>
					<dim>3</dim>
				</port>
			</input>
			<output>
				<port id="2" precision="FP32">
					<dim>1</dim>
					<dim>16</dim>
					<dim>64</dim>
					<dim>64</dim>
					<dim>64</dim>
				</port>
			</output>
		</layer>
		<layer id="268" name="data_add_71257130_compressed" type="Const" version="opset1">
			<data element_type="f16" shape="1, 16, 1, 1, 1" offset="2811168" size="32" />
			<output>
				<port id="0" precision="FP16">
					<dim>1</dim>
					<dim>16</dim>
					<dim>1</dim>
					<dim>1</dim>
					<dim>1</dim>
				</port>
			</output>
		</layer>
		<layer id="269" name="data_add_71257130" type="Convert" version="opset1">
			<data destination_type="f32" />
			<rt_info>
				<attribute name="decompression" version="0" />
			</rt_info>
			<input>
				<port id="0" precision="FP16">
					<dim>1</dim>
					<dim>16</dim>
					<dim>1</dim>
					<dim>1</dim>
					<dim>1</dim>
				</port>
			</input>
			<output>
				<port id="1" precision="FP32">
					<dim>1</dim>
					<dim>16</dim>
					<dim>1</dim>
					<dim>1</dim>
					<dim>1</dim>
				</port>
			</output>
		</layer>
		<layer id="270" name="StatefulPartitionedCall/3d_unet_decathlon/decodeA_conv1/BiasAdd/Add/Fused_Add_" type="Add" version="opset1">
			<data auto_broadcast="numpy" />
			<input>
				<port id="0" precision="FP32">
					<dim>1</dim>
					<dim>16</dim>
					<dim>64</dim>
					<dim>64</dim>
					<dim>64</dim>
				</port>
				<port id="1" precision="FP32">
					<dim>1</dim>
					<dim>16</dim>
					<dim>1</dim>
					<dim>1</dim>
					<dim>1</dim>
				</port>
			</input>
			<output>
				<port id="2" precision="FP32" names="StatefulPartitionedCall/3d_unet_decathlon/decodeA_bn1/FusedBatchNormV3:0">
					<dim>1</dim>
					<dim>16</dim>
					<dim>64</dim>
					<dim>64</dim>
					<dim>64</dim>
				</port>
			</output>
		</layer>
		<layer id="271" name="StatefulPartitionedCall/3d_unet_decathlon/decodeA/Relu" type="ReLU" version="opset1">
			<input>
				<port id="0" precision="FP32">
					<dim>1</dim>
					<dim>16</dim>
					<dim>64</dim>
					<dim>64</dim>
					<dim>64</dim>
				</port>
			</input>
			<output>
				<port id="1" precision="FP32" names="StatefulPartitionedCall/3d_unet_decathlon/decodeA/Relu:0">
					<dim>1</dim>
					<dim>16</dim>
					<dim>64</dim>
					<dim>64</dim>
					<dim>64</dim>
				</port>
			</output>
		</layer>
		<layer id="272" name="StatefulPartitionedCall/3d_unet_decathlon/transconvA/conv3d_transpose/ReadVariableOp_compressed" type="Const" version="opset1">
			<data element_type="f16" shape="16, 8, 2, 2, 2" offset="2811200" size="2048" />
			<output>
				<port id="0" precision="FP16">
					<dim>16</dim>
					<dim>8</dim>
					<dim>2</dim>
					<dim>2</dim>
					<dim>2</dim>
				</port>
			</output>
		</layer>
		<layer id="273" name="StatefulPartitionedCall/3d_unet_decathlon/transconvA/conv3d_transpose/ReadVariableOp" type="Convert" version="opset1">
			<data destination_type="f32" />
			<rt_info>
				<attribute name="decompression" version="0" />
			</rt_info>
			<input>
				<port id="0" precision="FP16">
					<dim>16</dim>
					<dim>8</dim>
					<dim>2</dim>
					<dim>2</dim>
					<dim>2</dim>
				</port>
			</input>
			<output>
				<port id="1" precision="FP32" names="StatefulPartitionedCall/3d_unet_decathlon/transconvA/conv3d_transpose/ReadVariableOp:0">
					<dim>16</dim>
					<dim>8</dim>
					<dim>2</dim>
					<dim>2</dim>
					<dim>2</dim>
				</port>
			</output>
		</layer>
		<layer id="274" name="StatefulPartitionedCall/3d_unet_decathlon/transconvA/Shape" type="ShapeOf" version="opset3">
			<data output_type="i32" />
			<input>
				<port id="0" precision="FP32">
					<dim>1</dim>
					<dim>16</dim>
					<dim>64</dim>
					<dim>64</dim>
					<dim>64</dim>
				</port>
			</input>
			<output>
				<port id="1" precision="I32">
					<dim>5</dim>
				</port>
			</output>
		</layer>
		<layer id="275" name="StatefulPartitionedCall/3d_unet_decathlon/transconvA/Shape/GatherNCHWtoNHWC_input_port_1/value909613461" type="Const" version="opset1">
			<data element_type="i32" shape="5" offset="1898552" size="20" />
			<output>
				<port id="0" precision="I32">
					<dim>5</dim>
				</port>
			</output>
		</layer>
		<layer id="276" name="StatefulPartitionedCall/3d_unet_decathlon/transconvA/Shape/GatherNCHWtoNHWC_input_port_2/value909813275" type="Const" version="opset1">
			<data element_type="i64" shape="" offset="1898572" size="8" />
			<output>
				<port id="0" precision="I64" />
			</output>
		</layer>
		<layer id="277" name="StatefulPartitionedCall/3d_unet_decathlon/transconvA/Shape/GatherNCHWtoNHWC" type="Gather" version="opset8">
			<data batch_dims="0" />
			<input>
				<port id="0" precision="I32">
					<dim>5</dim>
				</port>
				<port id="1" precision="I32">
					<dim>5</dim>
				</port>
				<port id="2" precision="I64" />
			</input>
			<output>
				<port id="3" precision="I32" names="StatefulPartitionedCall/3d_unet_decathlon/transconvA/Shape:0">
					<dim>5</dim>
				</port>
			</output>
		</layer>
		<layer id="278" name="StatefulPartitionedCall/3d_unet_decathlon/transconvA/strided_slice/stack" type="Const" version="opset1">
			<data element_type="i64" shape="1" offset="1898572" size="8" />
			<output>
				<port id="0" precision="I64" names="StatefulPartitionedCall/3d_unet_decathlon/transconvA/strided_slice/stack:0">
					<dim>1</dim>
				</port>
			</output>
		</layer>
		<layer id="279" name="StatefulPartitionedCall/3d_unet_decathlon/transconvA/strided_slice/stack_1" type="Const" version="opset1">
			<data element_type="i64" shape="1" offset="1898580" size="8" />
			<output>
				<port id="0" precision="I64" names="StatefulPartitionedCall/3d_unet_decathlon/transconvA/strided_slice/stack_1:0">
					<dim>1</dim>
				</port>
			</output>
		</layer>
		<layer id="280" name="StatefulPartitionedCall/3d_unet_decathlon/transconvA/strided_slice/stack_2" type="Const" version="opset1">
			<data element_type="i64" shape="1" offset="1898580" size="8" />
			<output>
				<port id="0" precision="I64" names="StatefulPartitionedCall/3d_unet_decathlon/transconvA/strided_slice/stack_2:0">
					<dim>1</dim>
				</port>
			</output>
		</layer>
		<layer id="281" name="StatefulPartitionedCall/3d_unet_decathlon/transconvA/strided_slice" type="StridedSlice" version="opset1">
			<data begin_mask="0" end_mask="0" new_axis_mask="0" shrink_axis_mask="1" ellipsis_mask="0" />
			<input>
				<port id="0" precision="I32">
					<dim>5</dim>
				</port>
				<port id="1" precision="I64">
					<dim>1</dim>
				</port>
				<port id="2" precision="I64">
					<dim>1</dim>
				</port>
				<port id="3" precision="I64">
					<dim>1</dim>
				</port>
			</input>
			<output>
				<port id="4" precision="I32" names="StatefulPartitionedCall/3d_unet_decathlon/transconvA/strided_slice:0" />
			</output>
		</layer>
		<layer id="282" name="StatefulPartitionedCall/3d_unet_decathlon/transconvA/stack/Unsqueeze_input_port_1/value" type="Const" version="opset1">
			<data element_type="i64" shape="1" offset="1898572" size="8" />
			<output>
				<port id="0" precision="I64">
					<dim>1</dim>
				</port>
			</output>
		</layer>
		<layer id="283" name="StatefulPartitionedCall/3d_unet_decathlon/transconvA/stack/Unsqueeze" type="Unsqueeze" version="opset1">
			<input>
				<port id="0" precision="I32" />
				<port id="1" precision="I64">
					<dim>1</dim>
				</port>
			</input>
			<output>
				<port id="2" precision="I32">
					<dim>1</dim>
				</port>
			</output>
		</layer>
		<layer id="284" name="StatefulPartitionedCall/3d_unet_decathlon/transconvA/strided_slice_1/stack" type="Const" version="opset1">
			<data element_type="i64" shape="1" offset="1898580" size="8" />
			<output>
				<port id="0" precision="I64" names="StatefulPartitionedCall/3d_unet_decathlon/transconvA/strided_slice_1/stack:0">
					<dim>1</dim>
				</port>
			</output>
		</layer>
		<layer id="285" name="StatefulPartitionedCall/3d_unet_decathlon/transconvA/strided_slice_1/stack_1" type="Const" version="opset1">
			<data element_type="i64" shape="1" offset="1898588" size="8" />
			<output>
				<port id="0" precision="I64" names="StatefulPartitionedCall/3d_unet_decathlon/transconvA/strided_slice_1/stack_1:0">
					<dim>1</dim>
				</port>
			</output>
		</layer>
		<layer id="286" name="StatefulPartitionedCall/3d_unet_decathlon/transconvA/strided_slice_1/stack_2" type="Const" version="opset1">
			<data element_type="i64" shape="1" offset="1898580" size="8" />
			<output>
				<port id="0" precision="I64" names="StatefulPartitionedCall/3d_unet_decathlon/transconvA/strided_slice_1/stack_2:0">
					<dim>1</dim>
				</port>
			</output>
		</layer>
		<layer id="287" name="StatefulPartitionedCall/3d_unet_decathlon/transconvA/strided_slice_1" type="StridedSlice" version="opset1">
			<data begin_mask="0" end_mask="0" new_axis_mask="0" shrink_axis_mask="1" ellipsis_mask="0" />
			<input>
				<port id="0" precision="I32">
					<dim>5</dim>
				</port>
				<port id="1" precision="I64">
					<dim>1</dim>
				</port>
				<port id="2" precision="I64">
					<dim>1</dim>
				</port>
				<port id="3" precision="I64">
					<dim>1</dim>
				</port>
			</input>
			<output>
				<port id="4" precision="I32" names="StatefulPartitionedCall/3d_unet_decathlon/transconvA/strided_slice_1:0" />
			</output>
		</layer>
		<layer id="288" name="StatefulPartitionedCall/3d_unet_decathlon/transconvA/mul/y" type="Const" version="opset1">
			<data element_type="i32" shape="" offset="1898596" size="4" />
			<output>
				<port id="0" precision="I32" names="StatefulPartitionedCall/3d_unet_decathlon/transconvA/mul/y:0" />
			</output>
		</layer>
		<layer id="289" name="StatefulPartitionedCall/3d_unet_decathlon/transconvA/mul" type="Multiply" version="opset1">
			<data auto_broadcast="numpy" />
			<input>
				<port id="0" precision="I32" />
				<port id="1" precision="I32" />
			</input>
			<output>
				<port id="2" precision="I32" names="StatefulPartitionedCall/3d_unet_decathlon/transconvA/mul:0" />
			</output>
		</layer>
		<layer id="290" name="StatefulPartitionedCall/3d_unet_decathlon/transconvA/stack/Unsqueeze596_input_port_1/value" type="Const" version="opset1">
			<data element_type="i64" shape="1" offset="1898572" size="8" />
			<output>
				<port id="0" precision="I64">
					<dim>1</dim>
				</port>
			</output>
		</layer>
		<layer id="291" name="StatefulPartitionedCall/3d_unet_decathlon/transconvA/stack/Unsqueeze596" type="Unsqueeze" version="opset1">
			<input>
				<port id="0" precision="I32" />
				<port id="1" precision="I64">
					<dim>1</dim>
				</port>
			</input>
			<output>
				<port id="2" precision="I32">
					<dim>1</dim>
				</port>
			</output>
		</layer>
		<layer id="292" name="StatefulPartitionedCall/3d_unet_decathlon/transconvA/strided_slice_2/stack" type="Const" version="opset1">
			<data element_type="i64" shape="1" offset="1898588" size="8" />
			<output>
				<port id="0" precision="I64" names="StatefulPartitionedCall/3d_unet_decathlon/transconvA/strided_slice_2/stack:0">
					<dim>1</dim>
				</port>
			</output>
		</layer>
		<layer id="293" name="StatefulPartitionedCall/3d_unet_decathlon/transconvA/strided_slice_2/stack_1" type="Const" version="opset1">
			<data element_type="i64" shape="1" offset="1898600" size="8" />
			<output>
				<port id="0" precision="I64" names="StatefulPartitionedCall/3d_unet_decathlon/transconvA/strided_slice_2/stack_1:0">
					<dim>1</dim>
				</port>
			</output>
		</layer>
		<layer id="294" name="StatefulPartitionedCall/3d_unet_decathlon/transconvA/strided_slice_2/stack_2" type="Const" version="opset1">
			<data element_type="i64" shape="1" offset="1898580" size="8" />
			<output>
				<port id="0" precision="I64" names="StatefulPartitionedCall/3d_unet_decathlon/transconvA/strided_slice_2/stack_2:0">
					<dim>1</dim>
				</port>
			</output>
		</layer>
		<layer id="295" name="StatefulPartitionedCall/3d_unet_decathlon/transconvA/strided_slice_2" type="StridedSlice" version="opset1">
			<data begin_mask="0" end_mask="0" new_axis_mask="0" shrink_axis_mask="1" ellipsis_mask="0" />
			<input>
				<port id="0" precision="I32">
					<dim>5</dim>
				</port>
				<port id="1" precision="I64">
					<dim>1</dim>
				</port>
				<port id="2" precision="I64">
					<dim>1</dim>
				</port>
				<port id="3" precision="I64">
					<dim>1</dim>
				</port>
			</input>
			<output>
				<port id="4" precision="I32" names="StatefulPartitionedCall/3d_unet_decathlon/transconvA/strided_slice_2:0" />
			</output>
		</layer>
		<layer id="296" name="StatefulPartitionedCall/3d_unet_decathlon/transconvA/mul_1/y" type="Const" version="opset1">
			<data element_type="i32" shape="" offset="1898596" size="4" />
			<output>
				<port id="0" precision="I32" names="StatefulPartitionedCall/3d_unet_decathlon/transconvA/mul_1/y:0" />
			</output>
		</layer>
		<layer id="297" name="StatefulPartitionedCall/3d_unet_decathlon/transconvA/mul_1" type="Multiply" version="opset1">
			<data auto_broadcast="numpy" />
			<input>
				<port id="0" precision="I32" />
				<port id="1" precision="I32" />
			</input>
			<output>
				<port id="2" precision="I32" names="StatefulPartitionedCall/3d_unet_decathlon/transconvA/mul_1:0" />
			</output>
		</layer>
		<layer id="298" name="StatefulPartitionedCall/3d_unet_decathlon/transconvA/stack/Unsqueeze598_input_port_1/value" type="Const" version="opset1">
			<data element_type="i64" shape="1" offset="1898572" size="8" />
			<output>
				<port id="0" precision="I64">
					<dim>1</dim>
				</port>
			</output>
		</layer>
		<layer id="299" name="StatefulPartitionedCall/3d_unet_decathlon/transconvA/stack/Unsqueeze598" type="Unsqueeze" version="opset1">
			<input>
				<port id="0" precision="I32" />
				<port id="1" precision="I64">
					<dim>1</dim>
				</port>
			</input>
			<output>
				<port id="2" precision="I32">
					<dim>1</dim>
				</port>
			</output>
		</layer>
		<layer id="300" name="StatefulPartitionedCall/3d_unet_decathlon/transconvA/strided_slice_3/stack" type="Const" version="opset1">
			<data element_type="i64" shape="1" offset="1898600" size="8" />
			<output>
				<port id="0" precision="I64" names="StatefulPartitionedCall/3d_unet_decathlon/transconvA/strided_slice_3/stack:0">
					<dim>1</dim>
				</port>
			</output>
		</layer>
		<layer id="301" name="StatefulPartitionedCall/3d_unet_decathlon/transconvA/strided_slice_3/stack_1" type="Const" version="opset1">
			<data element_type="i64" shape="1" offset="1898608" size="8" />
			<output>
				<port id="0" precision="I64" names="StatefulPartitionedCall/3d_unet_decathlon/transconvA/strided_slice_3/stack_1:0">
					<dim>1</dim>
				</port>
			</output>
		</layer>
		<layer id="302" name="StatefulPartitionedCall/3d_unet_decathlon/transconvA/strided_slice_3/stack_2" type="Const" version="opset1">
			<data element_type="i64" shape="1" offset="1898580" size="8" />
			<output>
				<port id="0" precision="I64" names="StatefulPartitionedCall/3d_unet_decathlon/transconvA/strided_slice_3/stack_2:0">
					<dim>1</dim>
				</port>
			</output>
		</layer>
		<layer id="303" name="StatefulPartitionedCall/3d_unet_decathlon/transconvA/strided_slice_3" type="StridedSlice" version="opset1">
			<data begin_mask="0" end_mask="0" new_axis_mask="0" shrink_axis_mask="1" ellipsis_mask="0" />
			<input>
				<port id="0" precision="I32">
					<dim>5</dim>
				</port>
				<port id="1" precision="I64">
					<dim>1</dim>
				</port>
				<port id="2" precision="I64">
					<dim>1</dim>
				</port>
				<port id="3" precision="I64">
					<dim>1</dim>
				</port>
			</input>
			<output>
				<port id="4" precision="I32" names="StatefulPartitionedCall/3d_unet_decathlon/transconvA/strided_slice_3:0" />
			</output>
		</layer>
		<layer id="304" name="StatefulPartitionedCall/3d_unet_decathlon/transconvA/mul_2/y" type="Const" version="opset1">
			<data element_type="i32" shape="" offset="1898596" size="4" />
			<output>
				<port id="0" precision="I32" names="StatefulPartitionedCall/3d_unet_decathlon/transconvA/mul_2/y:0" />
			</output>
		</layer>
		<layer id="305" name="StatefulPartitionedCall/3d_unet_decathlon/transconvA/mul_2" type="Multiply" version="opset1">
			<data auto_broadcast="numpy" />
			<input>
				<port id="0" precision="I32" />
				<port id="1" precision="I32" />
			</input>
			<output>
				<port id="2" precision="I32" names="StatefulPartitionedCall/3d_unet_decathlon/transconvA/mul_2:0" />
			</output>
		</layer>
		<layer id="306" name="StatefulPartitionedCall/3d_unet_decathlon/transconvA/stack/Unsqueeze600_input_port_1/value" type="Const" version="opset1">
			<data element_type="i64" shape="1" offset="1898572" size="8" />
			<output>
				<port id="0" precision="I64">
					<dim>1</dim>
				</port>
			</output>
		</layer>
		<layer id="307" name="StatefulPartitionedCall/3d_unet_decathlon/transconvA/stack/Unsqueeze600" type="Unsqueeze" version="opset1">
			<input>
				<port id="0" precision="I32" />
				<port id="1" precision="I64">
					<dim>1</dim>
				</port>
			</input>
			<output>
				<port id="2" precision="I32">
					<dim>1</dim>
				</port>
			</output>
		</layer>
		<layer id="308" name="StatefulPartitionedCall/3d_unet_decathlon/transconvA/stack/Unsqueeze602" type="Const" version="opset1">
			<data element_type="i32" shape="1" offset="2813248" size="4" />
			<output>
				<port id="0" precision="I32">
					<dim>1</dim>
				</port>
			</output>
		</layer>
		<layer id="309" name="StatefulPartitionedCall/3d_unet_decathlon/transconvA/stack" type="Concat" version="opset1">
			<data axis="0" />
			<input>
				<port id="0" precision="I32">
					<dim>1</dim>
				</port>
				<port id="1" precision="I32">
					<dim>1</dim>
				</port>
				<port id="2" precision="I32">
					<dim>1</dim>
				</port>
				<port id="3" precision="I32">
					<dim>1</dim>
				</port>
				<port id="4" precision="I32">
					<dim>1</dim>
				</port>
			</input>
			<output>
				<port id="5" precision="I32">
					<dim>5</dim>
				</port>
			</output>
		</layer>
		<layer id="310" name="StatefulPartitionedCall/3d_unet_decathlon/transconvA/conv3d_transpose/GatherNHWCtoNCHW_input_port_1/value911413659" type="Const" version="opset1">
			<data element_type="i32" shape="5" offset="1898620" size="20" />
			<output>
				<port id="0" precision="I32">
					<dim>5</dim>
				</port>
			</output>
		</layer>
		<layer id="311" name="StatefulPartitionedCall/3d_unet_decathlon/transconvA/conv3d_transpose/GatherNHWCtoNCHW_input_port_2/value911613671" type="Const" version="opset1">
			<data element_type="i64" shape="" offset="1898572" size="8" />
			<output>
				<port id="0" precision="I64" />
			</output>
		</layer>
		<layer id="312" name="StatefulPartitionedCall/3d_unet_decathlon/transconvA/conv3d_transpose/GatherNHWCtoNCHW" type="Gather" version="opset8">
			<data batch_dims="0" />
			<input>
				<port id="0" precision="I32">
					<dim>5</dim>
				</port>
				<port id="1" precision="I32">
					<dim>5</dim>
				</port>
				<port id="2" precision="I64" />
			</input>
			<output>
				<port id="3" precision="I32">
					<dim>5</dim>
				</port>
			</output>
		</layer>
		<layer id="313" name="StatefulPartitionedCall/3d_unet_decathlon/transconvA/conv3d_transpose/ss_0_port_input_port_1/value1225613353" type="Const" version="opset1">
			<data element_type="i64" shape="1" offset="1898588" size="8" />
			<output>
				<port id="0" precision="I64">
					<dim>1</dim>
				</port>
			</output>
		</layer>
		<layer id="314" name="StatefulPartitionedCall/3d_unet_decathlon/transconvA/conv3d_transpose/ss_0_port_input_port_2/value1225813245" type="Const" version="opset1">
			<data element_type="i64" shape="1" offset="1898640" size="8" />
			<output>
				<port id="0" precision="I64">
					<dim>1</dim>
				</port>
			</output>
		</layer>
		<layer id="315" name="StatefulPartitionedCall/3d_unet_decathlon/transconvA/conv3d_transpose/ss_0_port_input_port_3/value1226013677" type="Const" version="opset1">
			<data element_type="i64" shape="1" offset="1898580" size="8" />
			<output>
				<port id="0" precision="I64">
					<dim>1</dim>
				</port>
			</output>
		</layer>
		<layer id="316" name="StatefulPartitionedCall/3d_unet_decathlon/transconvA/conv3d_transpose/ss_0_port" type="StridedSlice" version="opset1">
			<data begin_mask="0" end_mask="1" new_axis_mask="0" shrink_axis_mask="0" ellipsis_mask="0" />
			<input>
				<port id="0" precision="I32">
					<dim>5</dim>
				</port>
				<port id="1" precision="I64">
					<dim>1</dim>
				</port>
				<port id="2" precision="I64">
					<dim>1</dim>
				</port>
				<port id="3" precision="I64">
					<dim>1</dim>
				</port>
			</input>
			<output>
				<port id="4" precision="I32">
					<dim>3</dim>
				</port>
			</output>
		</layer>
		<layer id="317" name="StatefulPartitionedCall/3d_unet_decathlon/transconvA/conv3d_transpose/Cast_2" type="Convert" version="opset1">
			<data destination_type="i64" />
			<input>
				<port id="0" precision="I32">
					<dim>3</dim>
				</port>
			</input>
			<output>
				<port id="1" precision="I64">
					<dim>3</dim>
				</port>
			</output>
		</layer>
		<layer id="318" name="StatefulPartitionedCall/3d_unet_decathlon/transconvA/conv3d_transpose" type="ConvolutionBackpropData" version="opset1">
			<data strides="2, 2, 2" dilations="1, 1, 1" pads_begin="0, 0, 0" pads_end="0, 0, 0" auto_pad="same_lower" output_padding="0, 0, 0" />
			<input>
				<port id="0" precision="FP32">
					<dim>1</dim>
					<dim>16</dim>
					<dim>64</dim>
					<dim>64</dim>
					<dim>64</dim>
				</port>
				<port id="1" precision="FP32">
					<dim>16</dim>
					<dim>8</dim>
					<dim>2</dim>
					<dim>2</dim>
					<dim>2</dim>
				</port>
				<port id="2" precision="I64">
					<dim>3</dim>
				</port>
			</input>
			<output>
				<port id="3" precision="FP32" names="StatefulPartitionedCall/3d_unet_decathlon/transconvA/conv3d_transpose:0">
					<dim>1</dim>
					<dim>8</dim>
					<dim>128</dim>
					<dim>128</dim>
					<dim>128</dim>
				</port>
			</output>
		</layer>
		<layer id="319" name="StatefulPartitionedCall/3d_unet_decathlon/transconvA/BiasAdd/ReadVariableOp_compressed" type="Const" version="opset1">
			<data element_type="f16" shape="1, 8, 1, 1, 1" offset="2813252" size="16" />
			<output>
				<port id="0" precision="FP16">
					<dim>1</dim>
					<dim>8</dim>
					<dim>1</dim>
					<dim>1</dim>
					<dim>1</dim>
				</port>
			</output>
		</layer>
		<layer id="320" name="StatefulPartitionedCall/3d_unet_decathlon/transconvA/BiasAdd/ReadVariableOp" type="Convert" version="opset1">
			<data destination_type="f32" />
			<rt_info>
				<attribute name="decompression" version="0" />
			</rt_info>
			<input>
				<port id="0" precision="FP16">
					<dim>1</dim>
					<dim>8</dim>
					<dim>1</dim>
					<dim>1</dim>
					<dim>1</dim>
				</port>
			</input>
			<output>
				<port id="1" precision="FP32" names="StatefulPartitionedCall/3d_unet_decathlon/transconvA/BiasAdd/ReadVariableOp:0">
					<dim>1</dim>
					<dim>8</dim>
					<dim>1</dim>
					<dim>1</dim>
					<dim>1</dim>
				</port>
			</output>
		</layer>
		<layer id="321" name="StatefulPartitionedCall/3d_unet_decathlon/transconvA/BiasAdd/Add" type="Add" version="opset1">
			<data auto_broadcast="numpy" />
			<input>
				<port id="0" precision="FP32">
					<dim>1</dim>
					<dim>8</dim>
					<dim>128</dim>
					<dim>128</dim>
					<dim>128</dim>
				</port>
				<port id="1" precision="FP32">
					<dim>1</dim>
					<dim>8</dim>
					<dim>1</dim>
					<dim>1</dim>
					<dim>1</dim>
				</port>
			</input>
			<output>
				<port id="2" precision="FP32" names="StatefulPartitionedCall/3d_unet_decathlon/transconvA/BiasAdd:0">
					<dim>1</dim>
					<dim>8</dim>
					<dim>128</dim>
					<dim>128</dim>
					<dim>128</dim>
				</port>
			</output>
		</layer>
		<layer id="322" name="StatefulPartitionedCall/3d_unet_decathlon/concatA/concat" type="Concat" version="opset1">
			<data axis="1" />
			<input>
				<port id="0" precision="FP32">
					<dim>1</dim>
					<dim>8</dim>
					<dim>128</dim>
					<dim>128</dim>
					<dim>128</dim>
				</port>
				<port id="1" precision="FP32">
					<dim>1</dim>
					<dim>8</dim>
					<dim>128</dim>
					<dim>128</dim>
					<dim>128</dim>
				</port>
			</input>
			<output>
				<port id="2" precision="FP32" names="StatefulPartitionedCall/3d_unet_decathlon/concatA/concat:0">
					<dim>1</dim>
					<dim>16</dim>
					<dim>128</dim>
					<dim>128</dim>
					<dim>128</dim>
				</port>
			</output>
		</layer>
		<layer id="323" name="StatefulPartitionedCall/3d_unet_decathlon/convOut_bn0/FusedBatchNormV3/mean/Fused_Mul__copy_compressed" type="Const" version="opset1">
			<data element_type="f16" shape="8, 16, 3, 3, 3" offset="2813268" size="6912" />
			<output>
				<port id="0" precision="FP16">
					<dim>8</dim>
					<dim>16</dim>
					<dim>3</dim>
					<dim>3</dim>
					<dim>3</dim>
				</port>
			</output>
		</layer>
		<layer id="324" name="StatefulPartitionedCall/3d_unet_decathlon/convOut_bn0/FusedBatchNormV3/mean/Fused_Mul__copy" type="Convert" version="opset1">
			<data destination_type="f32" />
			<rt_info>
				<attribute name="decompression" version="0" />
			</rt_info>
			<input>
				<port id="0" precision="FP16">
					<dim>8</dim>
					<dim>16</dim>
					<dim>3</dim>
					<dim>3</dim>
					<dim>3</dim>
				</port>
			</input>
			<output>
				<port id="1" precision="FP32" names="StatefulPartitionedCall/3d_unet_decathlon/convOut_conv0/Conv3D/ReadVariableOp:0">
					<dim>8</dim>
					<dim>16</dim>
					<dim>3</dim>
					<dim>3</dim>
					<dim>3</dim>
				</port>
			</output>
		</layer>
		<layer id="325" name="StatefulPartitionedCall/3d_unet_decathlon/convOut_conv0/Conv3D" type="Convolution" version="opset1">
			<data strides="1, 1, 1" dilations="1, 1, 1" pads_begin="0, 0, 0" pads_end="0, 0, 0" auto_pad="same_upper" />
			<input>
				<port id="0" precision="FP32">
					<dim>1</dim>
					<dim>16</dim>
					<dim>128</dim>
					<dim>128</dim>
					<dim>128</dim>
				</port>
				<port id="1" precision="FP32">
					<dim>8</dim>
					<dim>16</dim>
					<dim>3</dim>
					<dim>3</dim>
					<dim>3</dim>
				</port>
			</input>
			<output>
				<port id="2" precision="FP32">
					<dim>1</dim>
					<dim>8</dim>
					<dim>128</dim>
					<dim>128</dim>
					<dim>128</dim>
				</port>
			</output>
		</layer>
		<layer id="326" name="data_add_71337138_compressed" type="Const" version="opset1">
			<data element_type="f16" shape="1, 8, 1, 1, 1" offset="2820180" size="16" />
			<output>
				<port id="0" precision="FP16">
					<dim>1</dim>
					<dim>8</dim>
					<dim>1</dim>
					<dim>1</dim>
					<dim>1</dim>
				</port>
			</output>
		</layer>
		<layer id="327" name="data_add_71337138" type="Convert" version="opset1">
			<data destination_type="f32" />
			<rt_info>
				<attribute name="decompression" version="0" />
			</rt_info>
			<input>
				<port id="0" precision="FP16">
					<dim>1</dim>
					<dim>8</dim>
					<dim>1</dim>
					<dim>1</dim>
					<dim>1</dim>
				</port>
			</input>
			<output>
				<port id="1" precision="FP32">
					<dim>1</dim>
					<dim>8</dim>
					<dim>1</dim>
					<dim>1</dim>
					<dim>1</dim>
				</port>
			</output>
		</layer>
		<layer id="328" name="StatefulPartitionedCall/3d_unet_decathlon/convOut_conv0/BiasAdd/Add/Fused_Add_" type="Add" version="opset1">
			<data auto_broadcast="numpy" />
			<input>
				<port id="0" precision="FP32">
					<dim>1</dim>
					<dim>8</dim>
					<dim>128</dim>
					<dim>128</dim>
					<dim>128</dim>
				</port>
				<port id="1" precision="FP32">
					<dim>1</dim>
					<dim>8</dim>
					<dim>1</dim>
					<dim>1</dim>
					<dim>1</dim>
				</port>
			</input>
			<output>
				<port id="2" precision="FP32" names="StatefulPartitionedCall/3d_unet_decathlon/convOut_bn0/FusedBatchNormV3:0">
					<dim>1</dim>
					<dim>8</dim>
					<dim>128</dim>
					<dim>128</dim>
					<dim>128</dim>
				</port>
			</output>
		</layer>
		<layer id="329" name="StatefulPartitionedCall/3d_unet_decathlon/convOut_relu0/Relu" type="ReLU" version="opset1">
			<input>
				<port id="0" precision="FP32">
					<dim>1</dim>
					<dim>8</dim>
					<dim>128</dim>
					<dim>128</dim>
					<dim>128</dim>
				</port>
			</input>
			<output>
				<port id="1" precision="FP32" names="StatefulPartitionedCall/3d_unet_decathlon/convOut_relu0/Relu:0">
					<dim>1</dim>
					<dim>8</dim>
					<dim>128</dim>
					<dim>128</dim>
					<dim>128</dim>
				</port>
			</output>
		</layer>
		<layer id="330" name="StatefulPartitionedCall/3d_unet_decathlon/convOut_bn1/FusedBatchNormV3/mean/Fused_Mul__copy_compressed" type="Const" version="opset1">
			<data element_type="f16" shape="8, 8, 3, 3, 3" offset="2820196" size="3456" />
			<output>
				<port id="0" precision="FP16">
					<dim>8</dim>
					<dim>8</dim>
					<dim>3</dim>
					<dim>3</dim>
					<dim>3</dim>
				</port>
			</output>
		</layer>
		<layer id="331" name="StatefulPartitionedCall/3d_unet_decathlon/convOut_bn1/FusedBatchNormV3/mean/Fused_Mul__copy" type="Convert" version="opset1">
			<data destination_type="f32" />
			<rt_info>
				<attribute name="decompression" version="0" />
			</rt_info>
			<input>
				<port id="0" precision="FP16">
					<dim>8</dim>
					<dim>8</dim>
					<dim>3</dim>
					<dim>3</dim>
					<dim>3</dim>
				</port>
			</input>
			<output>
				<port id="1" precision="FP32" names="StatefulPartitionedCall/3d_unet_decathlon/convOut_conv1/Conv3D/ReadVariableOp:0">
					<dim>8</dim>
					<dim>8</dim>
					<dim>3</dim>
					<dim>3</dim>
					<dim>3</dim>
				</port>
			</output>
		</layer>
		<layer id="332" name="StatefulPartitionedCall/3d_unet_decathlon/convOut_conv1/Conv3D" type="Convolution" version="opset1">
			<data strides="1, 1, 1" dilations="1, 1, 1" pads_begin="0, 0, 0" pads_end="0, 0, 0" auto_pad="same_upper" />
			<input>
				<port id="0" precision="FP32">
					<dim>1</dim>
					<dim>8</dim>
					<dim>128</dim>
					<dim>128</dim>
					<dim>128</dim>
				</port>
				<port id="1" precision="FP32">
					<dim>8</dim>
					<dim>8</dim>
					<dim>3</dim>
					<dim>3</dim>
					<dim>3</dim>
				</port>
			</input>
			<output>
				<port id="2" precision="FP32">
					<dim>1</dim>
					<dim>8</dim>
					<dim>128</dim>
					<dim>128</dim>
					<dim>128</dim>
				</port>
			</output>
		</layer>
		<layer id="333" name="data_add_71417146_compressed" type="Const" version="opset1">
			<data element_type="f16" shape="1, 8, 1, 1, 1" offset="2823652" size="16" />
			<output>
				<port id="0" precision="FP16">
					<dim>1</dim>
					<dim>8</dim>
					<dim>1</dim>
					<dim>1</dim>
					<dim>1</dim>
				</port>
			</output>
		</layer>
		<layer id="334" name="data_add_71417146" type="Convert" version="opset1">
			<data destination_type="f32" />
			<rt_info>
				<attribute name="decompression" version="0" />
			</rt_info>
			<input>
				<port id="0" precision="FP16">
					<dim>1</dim>
					<dim>8</dim>
					<dim>1</dim>
					<dim>1</dim>
					<dim>1</dim>
				</port>
			</input>
			<output>
				<port id="1" precision="FP32">
					<dim>1</dim>
					<dim>8</dim>
					<dim>1</dim>
					<dim>1</dim>
					<dim>1</dim>
				</port>
			</output>
		</layer>
		<layer id="335" name="StatefulPartitionedCall/3d_unet_decathlon/convOut_conv1/BiasAdd/Add/Fused_Add_" type="Add" version="opset1">
			<data auto_broadcast="numpy" />
			<input>
				<port id="0" precision="FP32">
					<dim>1</dim>
					<dim>8</dim>
					<dim>128</dim>
					<dim>128</dim>
					<dim>128</dim>
				</port>
				<port id="1" precision="FP32">
					<dim>1</dim>
					<dim>8</dim>
					<dim>1</dim>
					<dim>1</dim>
					<dim>1</dim>
				</port>
			</input>
			<output>
				<port id="2" precision="FP32" names="StatefulPartitionedCall/3d_unet_decathlon/convOut_bn1/FusedBatchNormV3:0">
					<dim>1</dim>
					<dim>8</dim>
					<dim>128</dim>
					<dim>128</dim>
					<dim>128</dim>
				</port>
			</output>
		</layer>
		<layer id="336" name="StatefulPartitionedCall/3d_unet_decathlon/convOut/Relu" type="ReLU" version="opset1">
			<input>
				<port id="0" precision="FP32">
					<dim>1</dim>
					<dim>8</dim>
					<dim>128</dim>
					<dim>128</dim>
					<dim>128</dim>
				</port>
			</input>
			<output>
				<port id="1" precision="FP32" names="StatefulPartitionedCall/3d_unet_decathlon/convOut/Relu:0">
					<dim>1</dim>
					<dim>8</dim>
					<dim>128</dim>
					<dim>128</dim>
					<dim>128</dim>
				</port>
			</output>
		</layer>
		<layer id="337" name="StatefulPartitionedCall/3d_unet_decathlon/PredictionMask/Conv3D/ReadVariableOp_compressed" type="Const" version="opset1">
			<data element_type="f16" shape="3, 8, 1, 1, 1" offset="2823668" size="48" />
			<output>
				<port id="0" precision="FP16">
					<dim>3</dim>
					<dim>8</dim>
					<dim>1</dim>
					<dim>1</dim>
					<dim>1</dim>
				</port>
			</output>
		</layer>
		<layer id="338" name="StatefulPartitionedCall/3d_unet_decathlon/PredictionMask/Conv3D/ReadVariableOp" type="Convert" version="opset1">
			<data destination_type="f32" />
			<rt_info>
				<attribute name="decompression" version="0" />
			</rt_info>
			<input>
				<port id="0" precision="FP16">
					<dim>3</dim>
					<dim>8</dim>
					<dim>1</dim>
					<dim>1</dim>
					<dim>1</dim>
				</port>
			</input>
			<output>
				<port id="1" precision="FP32" names="StatefulPartitionedCall/3d_unet_decathlon/PredictionMask/Conv3D/ReadVariableOp:0">
					<dim>3</dim>
					<dim>8</dim>
					<dim>1</dim>
					<dim>1</dim>
					<dim>1</dim>
				</port>
			</output>
		</layer>
		<layer id="339" name="StatefulPartitionedCall/3d_unet_decathlon/PredictionMask/Conv3D" type="Convolution" version="opset1">
			<data strides="1, 1, 1" dilations="1, 1, 1" pads_begin="0, 0, 0" pads_end="0, 0, 0" auto_pad="valid" />
			<input>
				<port id="0" precision="FP32">
					<dim>1</dim>
					<dim>8</dim>
					<dim>128</dim>
					<dim>128</dim>
					<dim>128</dim>
				</port>
				<port id="1" precision="FP32">
					<dim>3</dim>
					<dim>8</dim>
					<dim>1</dim>
					<dim>1</dim>
					<dim>1</dim>
				</port>
			</input>
			<output>
				<port id="2" precision="FP32" names="StatefulPartitionedCall/3d_unet_decathlon/PredictionMask/Conv3D:0">
					<dim>1</dim>
					<dim>3</dim>
					<dim>128</dim>
					<dim>128</dim>
					<dim>128</dim>
				</port>
			</output>
		</layer>
		<layer id="340" name="StatefulPartitionedCall/3d_unet_decathlon/PredictionMask/BiasAdd/ReadVariableOp_compressed" type="Const" version="opset1">
			<data element_type="f16" shape="1, 3, 1, 1, 1" offset="2823716" size="6" />
			<output>
				<port id="0" precision="FP16">
					<dim>1</dim>
					<dim>3</dim>
					<dim>1</dim>
					<dim>1</dim>
					<dim>1</dim>
				</port>
			</output>
		</layer>
		<layer id="341" name="StatefulPartitionedCall/3d_unet_decathlon/PredictionMask/BiasAdd/ReadVariableOp" type="Convert" version="opset1">
			<data destination_type="f32" />
			<rt_info>
				<attribute name="decompression" version="0" />
			</rt_info>
			<input>
				<port id="0" precision="FP16">
					<dim>1</dim>
					<dim>3</dim>
					<dim>1</dim>
					<dim>1</dim>
					<dim>1</dim>
				</port>
			</input>
			<output>
				<port id="1" precision="FP32" names="StatefulPartitionedCall/3d_unet_decathlon/PredictionMask/BiasAdd/ReadVariableOp:0">
					<dim>1</dim>
					<dim>3</dim>
					<dim>1</dim>
					<dim>1</dim>
					<dim>1</dim>
				</port>
			</output>
		</layer>
		<layer id="342" name="StatefulPartitionedCall/3d_unet_decathlon/PredictionMask/BiasAdd/Add" type="Add" version="opset1">
			<data auto_broadcast="numpy" />
			<input>
				<port id="0" precision="FP32">
					<dim>1</dim>
					<dim>3</dim>
					<dim>128</dim>
					<dim>128</dim>
					<dim>128</dim>
				</port>
				<port id="1" precision="FP32">
					<dim>1</dim>
					<dim>3</dim>
					<dim>1</dim>
					<dim>1</dim>
					<dim>1</dim>
				</port>
			</input>
			<output>
				<port id="2" precision="FP32" names="StatefulPartitionedCall/3d_unet_decathlon/PredictionMask/BiasAdd:0">
					<dim>1</dim>
					<dim>3</dim>
					<dim>128</dim>
					<dim>128</dim>
					<dim>128</dim>
				</port>
			</output>
		</layer>
		<layer id="343" name="StatefulPartitionedCall/3d_unet_decathlon/PredictionMask/Sigmoid/prev" type="Sigmoid" version="opset1">
			<input>
				<port id="0" precision="FP32">
					<dim>1</dim>
					<dim>3</dim>
					<dim>128</dim>
					<dim>128</dim>
					<dim>128</dim>
				</port>
			</input>
			<output>
				<port id="1" precision="FP32">
					<dim>1</dim>
					<dim>3</dim>
					<dim>128</dim>
					<dim>128</dim>
					<dim>128</dim>
				</port>
			</output>
		</layer>
		<layer id="344" name="9270/value927213638" type="Const" version="opset1">
			<data element_type="i64" shape="5" offset="2823722" size="40" />
			<output>
				<port id="0" precision="I64">
					<dim>5</dim>
				</port>
			</output>
		</layer>
		<layer id="345" name="StatefulPartitionedCall/3d_unet_decathlon/PredictionMask/Sigmoid" type="Transpose" version="opset1">
			<input>
				<port id="0" precision="FP32">
					<dim>1</dim>
					<dim>3</dim>
					<dim>128</dim>
					<dim>128</dim>
					<dim>128</dim>
				</port>
				<port id="1" precision="I64">
					<dim>5</dim>
				</port>
			</input>
			<output>
				<port id="2" precision="FP32" names="Func/StatefulPartitionedCall/output/_119:0,Identity:0,StatefulPartitionedCall/3d_unet_decathlon/PredictionMask/Sigmoid:0,StatefulPartitionedCall/Identity:0">
					<dim>1</dim>
					<dim>128</dim>
					<dim>128</dim>
					<dim>128</dim>
					<dim>3</dim>
				</port>
			</output>
		</layer>
		<layer id="346" name="Func/StatefulPartitionedCall/output/_119:0" type="Result" version="opset1">
			<rt_info>
				<attribute name="old_api_map_order" version="0" value="0, 4, 1, 2, 3" />
			</rt_info>
			<input>
				<port id="0" precision="FP32">
					<dim>1</dim>
					<dim>128</dim>
					<dim>128</dim>
					<dim>128</dim>
					<dim>3</dim>
				</port>
			</input>
		</layer>
	</layers>
	<edges>
		<edge from-layer="0" from-port="0" to-layer="2" to-port="0" />
		<edge from-layer="1" from-port="0" to-layer="2" to-port="1" />
		<edge from-layer="2" from-port="2" to-layer="5" to-port="0" />
		<edge from-layer="3" from-port="0" to-layer="4" to-port="0" />
		<edge from-layer="4" from-port="1" to-layer="5" to-port="1" />
		<edge from-layer="5" from-port="2" to-layer="8" to-port="0" />
		<edge from-layer="6" from-port="0" to-layer="7" to-port="0" />
		<edge from-layer="7" from-port="1" to-layer="8" to-port="1" />
		<edge from-layer="8" from-port="2" to-layer="9" to-port="0" />
		<edge from-layer="9" from-port="1" to-layer="12" to-port="0" />
		<edge from-layer="10" from-port="0" to-layer="11" to-port="0" />
		<edge from-layer="11" from-port="1" to-layer="12" to-port="1" />
		<edge from-layer="12" from-port="2" to-layer="15" to-port="0" />
		<edge from-layer="13" from-port="0" to-layer="14" to-port="0" />
		<edge from-layer="14" from-port="1" to-layer="15" to-port="1" />
		<edge from-layer="15" from-port="2" to-layer="16" to-port="0" />
		<edge from-layer="16" from-port="1" to-layer="17" to-port="0" />
		<edge from-layer="16" from-port="1" to-layer="322" to-port="1" />
		<edge from-layer="17" from-port="1" to-layer="20" to-port="0" />
		<edge from-layer="18" from-port="0" to-layer="19" to-port="0" />
		<edge from-layer="19" from-port="1" to-layer="20" to-port="1" />
		<edge from-layer="20" from-port="2" to-layer="23" to-port="0" />
		<edge from-layer="21" from-port="0" to-layer="22" to-port="0" />
		<edge from-layer="22" from-port="1" to-layer="23" to-port="1" />
		<edge from-layer="23" from-port="2" to-layer="24" to-port="0" />
		<edge from-layer="24" from-port="1" to-layer="27" to-port="0" />
		<edge from-layer="25" from-port="0" to-layer="26" to-port="0" />
		<edge from-layer="26" from-port="1" to-layer="27" to-port="1" />
		<edge from-layer="27" from-port="2" to-layer="30" to-port="0" />
		<edge from-layer="28" from-port="0" to-layer="29" to-port="0" />
		<edge from-layer="29" from-port="1" to-layer="30" to-port="1" />
		<edge from-layer="30" from-port="2" to-layer="31" to-port="0" />
		<edge from-layer="31" from-port="1" to-layer="32" to-port="0" />
		<edge from-layer="31" from-port="1" to-layer="257" to-port="1" />
		<edge from-layer="32" from-port="1" to-layer="35" to-port="0" />
		<edge from-layer="33" from-port="0" to-layer="34" to-port="0" />
		<edge from-layer="34" from-port="1" to-layer="35" to-port="1" />
		<edge from-layer="35" from-port="2" to-layer="38" to-port="0" />
		<edge from-layer="36" from-port="0" to-layer="37" to-port="0" />
		<edge from-layer="37" from-port="1" to-layer="38" to-port="1" />
		<edge from-layer="38" from-port="2" to-layer="39" to-port="0" />
		<edge from-layer="39" from-port="1" to-layer="42" to-port="0" />
		<edge from-layer="40" from-port="0" to-layer="41" to-port="0" />
		<edge from-layer="41" from-port="1" to-layer="42" to-port="1" />
		<edge from-layer="42" from-port="2" to-layer="45" to-port="0" />
		<edge from-layer="43" from-port="0" to-layer="44" to-port="0" />
		<edge from-layer="44" from-port="1" to-layer="45" to-port="1" />
		<edge from-layer="45" from-port="2" to-layer="46" to-port="0" />
		<edge from-layer="46" from-port="1" to-layer="47" to-port="0" />
		<edge from-layer="46" from-port="1" to-layer="192" to-port="1" />
		<edge from-layer="47" from-port="1" to-layer="50" to-port="0" />
		<edge from-layer="48" from-port="0" to-layer="49" to-port="0" />
		<edge from-layer="49" from-port="1" to-layer="50" to-port="1" />
		<edge from-layer="50" from-port="2" to-layer="53" to-port="0" />
		<edge from-layer="51" from-port="0" to-layer="52" to-port="0" />
		<edge from-layer="52" from-port="1" to-layer="53" to-port="1" />
		<edge from-layer="53" from-port="2" to-layer="54" to-port="0" />
		<edge from-layer="54" from-port="1" to-layer="57" to-port="0" />
		<edge from-layer="55" from-port="0" to-layer="56" to-port="0" />
		<edge from-layer="56" from-port="1" to-layer="57" to-port="1" />
		<edge from-layer="57" from-port="2" to-layer="60" to-port="0" />
		<edge from-layer="58" from-port="0" to-layer="59" to-port="0" />
		<edge from-layer="59" from-port="1" to-layer="60" to-port="1" />
		<edge from-layer="60" from-port="2" to-layer="61" to-port="0" />
		<edge from-layer="61" from-port="1" to-layer="62" to-port="0" />
		<edge from-layer="61" from-port="1" to-layer="127" to-port="1" />
		<edge from-layer="62" from-port="1" to-layer="65" to-port="0" />
		<edge from-layer="63" from-port="0" to-layer="64" to-port="0" />
		<edge from-layer="64" from-port="1" to-layer="65" to-port="1" />
		<edge from-layer="65" from-port="2" to-layer="68" to-port="0" />
		<edge from-layer="66" from-port="0" to-layer="67" to-port="0" />
		<edge from-layer="67" from-port="1" to-layer="68" to-port="1" />
		<edge from-layer="68" from-port="2" to-layer="69" to-port="0" />
		<edge from-layer="69" from-port="1" to-layer="72" to-port="0" />
		<edge from-layer="70" from-port="0" to-layer="71" to-port="0" />
		<edge from-layer="71" from-port="1" to-layer="72" to-port="1" />
		<edge from-layer="72" from-port="2" to-layer="75" to-port="0" />
		<edge from-layer="73" from-port="0" to-layer="74" to-port="0" />
		<edge from-layer="74" from-port="1" to-layer="75" to-port="1" />
		<edge from-layer="75" from-port="2" to-layer="76" to-port="0" />
		<edge from-layer="76" from-port="1" to-layer="79" to-port="0" />
		<edge from-layer="76" from-port="1" to-layer="123" to-port="0" />
		<edge from-layer="77" from-port="0" to-layer="78" to-port="0" />
		<edge from-layer="78" from-port="1" to-layer="123" to-port="1" />
		<edge from-layer="79" from-port="1" to-layer="82" to-port="0" />
		<edge from-layer="80" from-port="0" to-layer="82" to-port="1" />
		<edge from-layer="81" from-port="0" to-layer="82" to-port="2" />
		<edge from-layer="82" from-port="3" to-layer="92" to-port="0" />
		<edge from-layer="82" from-port="3" to-layer="100" to-port="0" />
		<edge from-layer="82" from-port="3" to-layer="108" to-port="0" />
		<edge from-layer="82" from-port="3" to-layer="86" to-port="0" />
		<edge from-layer="83" from-port="0" to-layer="86" to-port="1" />
		<edge from-layer="84" from-port="0" to-layer="86" to-port="2" />
		<edge from-layer="85" from-port="0" to-layer="86" to-port="3" />
		<edge from-layer="86" from-port="4" to-layer="88" to-port="0" />
		<edge from-layer="87" from-port="0" to-layer="88" to-port="1" />
		<edge from-layer="88" from-port="2" to-layer="114" to-port="0" />
		<edge from-layer="89" from-port="0" to-layer="92" to-port="1" />
		<edge from-layer="90" from-port="0" to-layer="92" to-port="2" />
		<edge from-layer="91" from-port="0" to-layer="92" to-port="3" />
		<edge from-layer="92" from-port="4" to-layer="94" to-port="0" />
		<edge from-layer="93" from-port="0" to-layer="94" to-port="1" />
		<edge from-layer="94" from-port="2" to-layer="96" to-port="0" />
		<edge from-layer="95" from-port="0" to-layer="96" to-port="1" />
		<edge from-layer="96" from-port="2" to-layer="114" to-port="1" />
		<edge from-layer="97" from-port="0" to-layer="100" to-port="1" />
		<edge from-layer="98" from-port="0" to-layer="100" to-port="2" />
		<edge from-layer="99" from-port="0" to-layer="100" to-port="3" />
		<edge from-layer="100" from-port="4" to-layer="102" to-port="0" />
		<edge from-layer="101" from-port="0" to-layer="102" to-port="1" />
		<edge from-layer="102" from-port="2" to-layer="104" to-port="0" />
		<edge from-layer="103" from-port="0" to-layer="104" to-port="1" />
		<edge from-layer="104" from-port="2" to-layer="114" to-port="2" />
		<edge from-layer="105" from-port="0" to-layer="108" to-port="1" />
		<edge from-layer="106" from-port="0" to-layer="108" to-port="2" />
		<edge from-layer="107" from-port="0" to-layer="108" to-port="3" />
		<edge from-layer="108" from-port="4" to-layer="110" to-port="0" />
		<edge from-layer="109" from-port="0" to-layer="110" to-port="1" />
		<edge from-layer="110" from-port="2" to-layer="112" to-port="0" />
		<edge from-layer="111" from-port="0" to-layer="112" to-port="1" />
		<edge from-layer="112" from-port="2" to-layer="114" to-port="3" />
		<edge from-layer="113" from-port="0" to-layer="114" to-port="4" />
		<edge from-layer="114" from-port="5" to-layer="117" to-port="0" />
		<edge from-layer="115" from-port="0" to-layer="117" to-port="1" />
		<edge from-layer="116" from-port="0" to-layer="117" to-port="2" />
		<edge from-layer="117" from-port="3" to-layer="121" to-port="0" />
		<edge from-layer="118" from-port="0" to-layer="121" to-port="1" />
		<edge from-layer="119" from-port="0" to-layer="121" to-port="2" />
		<edge from-layer="120" from-port="0" to-layer="121" to-port="3" />
		<edge from-layer="121" from-port="4" to-layer="122" to-port="0" />
		<edge from-layer="122" from-port="1" to-layer="123" to-port="2" />
		<edge from-layer="123" from-port="3" to-layer="126" to-port="0" />
		<edge from-layer="124" from-port="0" to-layer="125" to-port="0" />
		<edge from-layer="125" from-port="1" to-layer="126" to-port="1" />
		<edge from-layer="126" from-port="2" to-layer="127" to-port="0" />
		<edge from-layer="127" from-port="2" to-layer="130" to-port="0" />
		<edge from-layer="128" from-port="0" to-layer="129" to-port="0" />
		<edge from-layer="129" from-port="1" to-layer="130" to-port="1" />
		<edge from-layer="130" from-port="2" to-layer="133" to-port="0" />
		<edge from-layer="131" from-port="0" to-layer="132" to-port="0" />
		<edge from-layer="132" from-port="1" to-layer="133" to-port="1" />
		<edge from-layer="133" from-port="2" to-layer="134" to-port="0" />
		<edge from-layer="134" from-port="1" to-layer="137" to-port="0" />
		<edge from-layer="135" from-port="0" to-layer="136" to-port="0" />
		<edge from-layer="136" from-port="1" to-layer="137" to-port="1" />
		<edge from-layer="137" from-port="2" to-layer="140" to-port="0" />
		<edge from-layer="138" from-port="0" to-layer="139" to-port="0" />
		<edge from-layer="139" from-port="1" to-layer="140" to-port="1" />
		<edge from-layer="140" from-port="2" to-layer="141" to-port="0" />
		<edge from-layer="141" from-port="1" to-layer="144" to-port="0" />
		<edge from-layer="141" from-port="1" to-layer="188" to-port="0" />
		<edge from-layer="142" from-port="0" to-layer="143" to-port="0" />
		<edge from-layer="143" from-port="1" to-layer="188" to-port="1" />
		<edge from-layer="144" from-port="1" to-layer="147" to-port="0" />
		<edge from-layer="145" from-port="0" to-layer="147" to-port="1" />
		<edge from-layer="146" from-port="0" to-layer="147" to-port="2" />
		<edge from-layer="147" from-port="3" to-layer="151" to-port="0" />
		<edge from-layer="147" from-port="3" to-layer="157" to-port="0" />
		<edge from-layer="147" from-port="3" to-layer="165" to-port="0" />
		<edge from-layer="147" from-port="3" to-layer="173" to-port="0" />
		<edge from-layer="148" from-port="0" to-layer="151" to-port="1" />
		<edge from-layer="149" from-port="0" to-layer="151" to-port="2" />
		<edge from-layer="150" from-port="0" to-layer="151" to-port="3" />
		<edge from-layer="151" from-port="4" to-layer="153" to-port="0" />
		<edge from-layer="152" from-port="0" to-layer="153" to-port="1" />
		<edge from-layer="153" from-port="2" to-layer="179" to-port="0" />
		<edge from-layer="154" from-port="0" to-layer="157" to-port="1" />
		<edge from-layer="155" from-port="0" to-layer="157" to-port="2" />
		<edge from-layer="156" from-port="0" to-layer="157" to-port="3" />
		<edge from-layer="157" from-port="4" to-layer="159" to-port="0" />
		<edge from-layer="158" from-port="0" to-layer="159" to-port="1" />
		<edge from-layer="159" from-port="2" to-layer="161" to-port="0" />
		<edge from-layer="160" from-port="0" to-layer="161" to-port="1" />
		<edge from-layer="161" from-port="2" to-layer="179" to-port="1" />
		<edge from-layer="162" from-port="0" to-layer="165" to-port="1" />
		<edge from-layer="163" from-port="0" to-layer="165" to-port="2" />
		<edge from-layer="164" from-port="0" to-layer="165" to-port="3" />
		<edge from-layer="165" from-port="4" to-layer="167" to-port="0" />
		<edge from-layer="166" from-port="0" to-layer="167" to-port="1" />
		<edge from-layer="167" from-port="2" to-layer="169" to-port="0" />
		<edge from-layer="168" from-port="0" to-layer="169" to-port="1" />
		<edge from-layer="169" from-port="2" to-layer="179" to-port="2" />
		<edge from-layer="170" from-port="0" to-layer="173" to-port="1" />
		<edge from-layer="171" from-port="0" to-layer="173" to-port="2" />
		<edge from-layer="172" from-port="0" to-layer="173" to-port="3" />
		<edge from-layer="173" from-port="4" to-layer="175" to-port="0" />
		<edge from-layer="174" from-port="0" to-layer="175" to-port="1" />
		<edge from-layer="175" from-port="2" to-layer="177" to-port="0" />
		<edge from-layer="176" from-port="0" to-layer="177" to-port="1" />
		<edge from-layer="177" from-port="2" to-layer="179" to-port="3" />
		<edge from-layer="178" from-port="0" to-layer="179" to-port="4" />
		<edge from-layer="179" from-port="5" to-layer="182" to-port="0" />
		<edge from-layer="180" from-port="0" to-layer="182" to-port="1" />
		<edge from-layer="181" from-port="0" to-layer="182" to-port="2" />
		<edge from-layer="182" from-port="3" to-layer="186" to-port="0" />
		<edge from-layer="183" from-port="0" to-layer="186" to-port="1" />
		<edge from-layer="184" from-port="0" to-layer="186" to-port="2" />
		<edge from-layer="185" from-port="0" to-layer="186" to-port="3" />
		<edge from-layer="186" from-port="4" to-layer="187" to-port="0" />
		<edge from-layer="187" from-port="1" to-layer="188" to-port="2" />
		<edge from-layer="188" from-port="3" to-layer="191" to-port="0" />
		<edge from-layer="189" from-port="0" to-layer="190" to-port="0" />
		<edge from-layer="190" from-port="1" to-layer="191" to-port="1" />
		<edge from-layer="191" from-port="2" to-layer="192" to-port="0" />
		<edge from-layer="192" from-port="2" to-layer="195" to-port="0" />
		<edge from-layer="193" from-port="0" to-layer="194" to-port="0" />
		<edge from-layer="194" from-port="1" to-layer="195" to-port="1" />
		<edge from-layer="195" from-port="2" to-layer="198" to-port="0" />
		<edge from-layer="196" from-port="0" to-layer="197" to-port="0" />
		<edge from-layer="197" from-port="1" to-layer="198" to-port="1" />
		<edge from-layer="198" from-port="2" to-layer="199" to-port="0" />
		<edge from-layer="199" from-port="1" to-layer="202" to-port="0" />
		<edge from-layer="200" from-port="0" to-layer="201" to-port="0" />
		<edge from-layer="201" from-port="1" to-layer="202" to-port="1" />
		<edge from-layer="202" from-port="2" to-layer="205" to-port="0" />
		<edge from-layer="203" from-port="0" to-layer="204" to-port="0" />
		<edge from-layer="204" from-port="1" to-layer="205" to-port="1" />
		<edge from-layer="205" from-port="2" to-layer="206" to-port="0" />
		<edge from-layer="206" from-port="1" to-layer="209" to-port="0" />
		<edge from-layer="206" from-port="1" to-layer="253" to-port="0" />
		<edge from-layer="207" from-port="0" to-layer="208" to-port="0" />
		<edge from-layer="208" from-port="1" to-layer="253" to-port="1" />
		<edge from-layer="209" from-port="1" to-layer="212" to-port="0" />
		<edge from-layer="210" from-port="0" to-layer="212" to-port="1" />
		<edge from-layer="211" from-port="0" to-layer="212" to-port="2" />
		<edge from-layer="212" from-port="3" to-layer="216" to-port="0" />
		<edge from-layer="212" from-port="3" to-layer="222" to-port="0" />
		<edge from-layer="212" from-port="3" to-layer="230" to-port="0" />
		<edge from-layer="212" from-port="3" to-layer="238" to-port="0" />
		<edge from-layer="213" from-port="0" to-layer="216" to-port="1" />
		<edge from-layer="214" from-port="0" to-layer="216" to-port="2" />
		<edge from-layer="215" from-port="0" to-layer="216" to-port="3" />
		<edge from-layer="216" from-port="4" to-layer="218" to-port="0" />
		<edge from-layer="217" from-port="0" to-layer="218" to-port="1" />
		<edge from-layer="218" from-port="2" to-layer="244" to-port="0" />
		<edge from-layer="219" from-port="0" to-layer="222" to-port="1" />
		<edge from-layer="220" from-port="0" to-layer="222" to-port="2" />
		<edge from-layer="221" from-port="0" to-layer="222" to-port="3" />
		<edge from-layer="222" from-port="4" to-layer="224" to-port="0" />
		<edge from-layer="223" from-port="0" to-layer="224" to-port="1" />
		<edge from-layer="224" from-port="2" to-layer="226" to-port="0" />
		<edge from-layer="225" from-port="0" to-layer="226" to-port="1" />
		<edge from-layer="226" from-port="2" to-layer="244" to-port="1" />
		<edge from-layer="227" from-port="0" to-layer="230" to-port="1" />
		<edge from-layer="228" from-port="0" to-layer="230" to-port="2" />
		<edge from-layer="229" from-port="0" to-layer="230" to-port="3" />
		<edge from-layer="230" from-port="4" to-layer="232" to-port="0" />
		<edge from-layer="231" from-port="0" to-layer="232" to-port="1" />
		<edge from-layer="232" from-port="2" to-layer="234" to-port="0" />
		<edge from-layer="233" from-port="0" to-layer="234" to-port="1" />
		<edge from-layer="234" from-port="2" to-layer="244" to-port="2" />
		<edge from-layer="235" from-port="0" to-layer="238" to-port="1" />
		<edge from-layer="236" from-port="0" to-layer="238" to-port="2" />
		<edge from-layer="237" from-port="0" to-layer="238" to-port="3" />
		<edge from-layer="238" from-port="4" to-layer="240" to-port="0" />
		<edge from-layer="239" from-port="0" to-layer="240" to-port="1" />
		<edge from-layer="240" from-port="2" to-layer="242" to-port="0" />
		<edge from-layer="241" from-port="0" to-layer="242" to-port="1" />
		<edge from-layer="242" from-port="2" to-layer="244" to-port="3" />
		<edge from-layer="243" from-port="0" to-layer="244" to-port="4" />
		<edge from-layer="244" from-port="5" to-layer="247" to-port="0" />
		<edge from-layer="245" from-port="0" to-layer="247" to-port="1" />
		<edge from-layer="246" from-port="0" to-layer="247" to-port="2" />
		<edge from-layer="247" from-port="3" to-layer="251" to-port="0" />
		<edge from-layer="248" from-port="0" to-layer="251" to-port="1" />
		<edge from-layer="249" from-port="0" to-layer="251" to-port="2" />
		<edge from-layer="250" from-port="0" to-layer="251" to-port="3" />
		<edge from-layer="251" from-port="4" to-layer="252" to-port="0" />
		<edge from-layer="252" from-port="1" to-layer="253" to-port="2" />
		<edge from-layer="253" from-port="3" to-layer="256" to-port="0" />
		<edge from-layer="254" from-port="0" to-layer="255" to-port="0" />
		<edge from-layer="255" from-port="1" to-layer="256" to-port="1" />
		<edge from-layer="256" from-port="2" to-layer="257" to-port="0" />
		<edge from-layer="257" from-port="2" to-layer="260" to-port="0" />
		<edge from-layer="258" from-port="0" to-layer="259" to-port="0" />
		<edge from-layer="259" from-port="1" to-layer="260" to-port="1" />
		<edge from-layer="260" from-port="2" to-layer="263" to-port="0" />
		<edge from-layer="261" from-port="0" to-layer="262" to-port="0" />
		<edge from-layer="262" from-port="1" to-layer="263" to-port="1" />
		<edge from-layer="263" from-port="2" to-layer="264" to-port="0" />
		<edge from-layer="264" from-port="1" to-layer="267" to-port="0" />
		<edge from-layer="265" from-port="0" to-layer="266" to-port="0" />
		<edge from-layer="266" from-port="1" to-layer="267" to-port="1" />
		<edge from-layer="267" from-port="2" to-layer="270" to-port="0" />
		<edge from-layer="268" from-port="0" to-layer="269" to-port="0" />
		<edge from-layer="269" from-port="1" to-layer="270" to-port="1" />
		<edge from-layer="270" from-port="2" to-layer="271" to-port="0" />
		<edge from-layer="271" from-port="1" to-layer="318" to-port="0" />
		<edge from-layer="271" from-port="1" to-layer="274" to-port="0" />
		<edge from-layer="272" from-port="0" to-layer="273" to-port="0" />
		<edge from-layer="273" from-port="1" to-layer="318" to-port="1" />
		<edge from-layer="274" from-port="1" to-layer="277" to-port="0" />
		<edge from-layer="275" from-port="0" to-layer="277" to-port="1" />
		<edge from-layer="276" from-port="0" to-layer="277" to-port="2" />
		<edge from-layer="277" from-port="3" to-layer="281" to-port="0" />
		<edge from-layer="277" from-port="3" to-layer="287" to-port="0" />
		<edge from-layer="277" from-port="3" to-layer="295" to-port="0" />
		<edge from-layer="277" from-port="3" to-layer="303" to-port="0" />
		<edge from-layer="278" from-port="0" to-layer="281" to-port="1" />
		<edge from-layer="279" from-port="0" to-layer="281" to-port="2" />
		<edge from-layer="280" from-port="0" to-layer="281" to-port="3" />
		<edge from-layer="281" from-port="4" to-layer="283" to-port="0" />
		<edge from-layer="282" from-port="0" to-layer="283" to-port="1" />
		<edge from-layer="283" from-port="2" to-layer="309" to-port="0" />
		<edge from-layer="284" from-port="0" to-layer="287" to-port="1" />
		<edge from-layer="285" from-port="0" to-layer="287" to-port="2" />
		<edge from-layer="286" from-port="0" to-layer="287" to-port="3" />
		<edge from-layer="287" from-port="4" to-layer="289" to-port="0" />
		<edge from-layer="288" from-port="0" to-layer="289" to-port="1" />
		<edge from-layer="289" from-port="2" to-layer="291" to-port="0" />
		<edge from-layer="290" from-port="0" to-layer="291" to-port="1" />
		<edge from-layer="291" from-port="2" to-layer="309" to-port="1" />
		<edge from-layer="292" from-port="0" to-layer="295" to-port="1" />
		<edge from-layer="293" from-port="0" to-layer="295" to-port="2" />
		<edge from-layer="294" from-port="0" to-layer="295" to-port="3" />
		<edge from-layer="295" from-port="4" to-layer="297" to-port="0" />
		<edge from-layer="296" from-port="0" to-layer="297" to-port="1" />
		<edge from-layer="297" from-port="2" to-layer="299" to-port="0" />
		<edge from-layer="298" from-port="0" to-layer="299" to-port="1" />
		<edge from-layer="299" from-port="2" to-layer="309" to-port="2" />
		<edge from-layer="300" from-port="0" to-layer="303" to-port="1" />
		<edge from-layer="301" from-port="0" to-layer="303" to-port="2" />
		<edge from-layer="302" from-port="0" to-layer="303" to-port="3" />
		<edge from-layer="303" from-port="4" to-layer="305" to-port="0" />
		<edge from-layer="304" from-port="0" to-layer="305" to-port="1" />
		<edge from-layer="305" from-port="2" to-layer="307" to-port="0" />
		<edge from-layer="306" from-port="0" to-layer="307" to-port="1" />
		<edge from-layer="307" from-port="2" to-layer="309" to-port="3" />
		<edge from-layer="308" from-port="0" to-layer="309" to-port="4" />
		<edge from-layer="309" from-port="5" to-layer="312" to-port="0" />
		<edge from-layer="310" from-port="0" to-layer="312" to-port="1" />
		<edge from-layer="311" from-port="0" to-layer="312" to-port="2" />
		<edge from-layer="312" from-port="3" to-layer="316" to-port="0" />
		<edge from-layer="313" from-port="0" to-layer="316" to-port="1" />
		<edge from-layer="314" from-port="0" to-layer="316" to-port="2" />
		<edge from-layer="315" from-port="0" to-layer="316" to-port="3" />
		<edge from-layer="316" from-port="4" to-layer="317" to-port="0" />
		<edge from-layer="317" from-port="1" to-layer="318" to-port="2" />
		<edge from-layer="318" from-port="3" to-layer="321" to-port="0" />
		<edge from-layer="319" from-port="0" to-layer="320" to-port="0" />
		<edge from-layer="320" from-port="1" to-layer="321" to-port="1" />
		<edge from-layer="321" from-port="2" to-layer="322" to-port="0" />
		<edge from-layer="322" from-port="2" to-layer="325" to-port="0" />
		<edge from-layer="323" from-port="0" to-layer="324" to-port="0" />
		<edge from-layer="324" from-port="1" to-layer="325" to-port="1" />
		<edge from-layer="325" from-port="2" to-layer="328" to-port="0" />
		<edge from-layer="326" from-port="0" to-layer="327" to-port="0" />
		<edge from-layer="327" from-port="1" to-layer="328" to-port="1" />
		<edge from-layer="328" from-port="2" to-layer="329" to-port="0" />
		<edge from-layer="329" from-port="1" to-layer="332" to-port="0" />
		<edge from-layer="330" from-port="0" to-layer="331" to-port="0" />
		<edge from-layer="331" from-port="1" to-layer="332" to-port="1" />
		<edge from-layer="332" from-port="2" to-layer="335" to-port="0" />
		<edge from-layer="333" from-port="0" to-layer="334" to-port="0" />
		<edge from-layer="334" from-port="1" to-layer="335" to-port="1" />
		<edge from-layer="335" from-port="2" to-layer="336" to-port="0" />
		<edge from-layer="336" from-port="1" to-layer="339" to-port="0" />
		<edge from-layer="337" from-port="0" to-layer="338" to-port="0" />
		<edge from-layer="338" from-port="1" to-layer="339" to-port="1" />
		<edge from-layer="339" from-port="2" to-layer="342" to-port="0" />
		<edge from-layer="340" from-port="0" to-layer="341" to-port="0" />
		<edge from-layer="341" from-port="1" to-layer="342" to-port="1" />
		<edge from-layer="342" from-port="2" to-layer="343" to-port="0" />
		<edge from-layer="343" from-port="1" to-layer="345" to-port="0" />
		<edge from-layer="344" from-port="0" to-layer="345" to-port="1" />
		<edge from-layer="345" from-port="2" to-layer="346" to-port="0" />
	</edges>
	<rt_info>
		<MO_version value="2023.1.0-12185-9e6b00e51cd-releases/2023/1" />
		<Runtime_version value="2023.1.0-12185-9e6b00e51cd-releases/2023/1" />
		<conversion_parameters>
			<batch value="1" />
			<is_python_api_used value="False" />
			<model_name value="3d_unet_decathlon" />
			<output_dir value="e:\Github\unet\3D\./openvino_models/FP32" />
			<saved_model_dir value="DIR" />
			<use_legacy_frontend value="True" />
		</conversion_parameters>
		<legacy_frontend value="True" />
	</rt_info>
</net>
